<?xml version="1.0"?>
<net name="torch-jit-export" version="11">
	<layers>
		<layer id="0" name="images" type="Parameter" version="opset1">
			<data shape="1,3,416,640" element_type="f32" />
			<rt_info>
				<attribute name="old_api_map_element_type" version="0" value="f16" />
			</rt_info>
			<output>
				<port id="0" precision="FP32" names="images">
					<dim>1</dim>
					<dim>3</dim>
					<dim>416</dim>
					<dim>640</dim>
				</port>
			</output>
		</layer>
		<layer id="1" name="0.model.22.ia.0.implicit_compressed" type="Const" version="opset1">
			<data element_type="f16" shape="1, 40, 1, 1" offset="0" size="80" />
			<output>
				<port id="0" precision="FP16">
					<dim>1</dim>
					<dim>40</dim>
					<dim>1</dim>
					<dim>1</dim>
				</port>
			</output>
		</layer>
		<layer id="2" name="0.model.22.ia.0.implicit" type="Convert" version="opset1">
			<data destination_type="f32" />
			<rt_info>
				<attribute name="decompression" version="0" />
			</rt_info>
			<input>
				<port id="0" precision="FP16">
					<dim>1</dim>
					<dim>40</dim>
					<dim>1</dim>
					<dim>1</dim>
				</port>
			</input>
			<output>
				<port id="1" precision="FP32" names="0.model.22.ia.0.implicit,onnx::Add_808">
					<dim>1</dim>
					<dim>40</dim>
					<dim>1</dim>
					<dim>1</dim>
				</port>
			</output>
		</layer>
		<layer id="3" name="0.model.0.stem_1.conv.weight_compressed" type="Const" version="opset1">
			<data element_type="f16" shape="16, 3, 3, 3" offset="80" size="864" />
			<output>
				<port id="0" precision="FP16">
					<dim>16</dim>
					<dim>3</dim>
					<dim>3</dim>
					<dim>3</dim>
				</port>
			</output>
		</layer>
		<layer id="4" name="0.model.0.stem_1.conv.weight" type="Convert" version="opset1">
			<data destination_type="f32" />
			<rt_info>
				<attribute name="decompression" version="0" />
			</rt_info>
			<input>
				<port id="0" precision="FP16">
					<dim>16</dim>
					<dim>3</dim>
					<dim>3</dim>
					<dim>3</dim>
				</port>
			</input>
			<output>
				<port id="1" precision="FP32" names="0.model.0.stem_1.conv.weight">
					<dim>16</dim>
					<dim>3</dim>
					<dim>3</dim>
					<dim>3</dim>
				</port>
			</output>
		</layer>
		<layer id="5" name="Conv_0/WithoutBiases" type="Convolution" version="opset1">
			<data strides="2, 2" dilations="1, 1" pads_begin="1, 1" pads_end="1, 1" auto_pad="explicit" />
			<input>
				<port id="0" precision="FP32">
					<dim>1</dim>
					<dim>3</dim>
					<dim>416</dim>
					<dim>640</dim>
				</port>
				<port id="1" precision="FP32">
					<dim>16</dim>
					<dim>3</dim>
					<dim>3</dim>
					<dim>3</dim>
				</port>
			</input>
			<output>
				<port id="2" precision="FP32">
					<dim>1</dim>
					<dim>16</dim>
					<dim>208</dim>
					<dim>320</dim>
				</port>
			</output>
		</layer>
		<layer id="6" name="Reshape_246_compressed" type="Const" version="opset1">
			<data element_type="f16" shape="1, 16, 1, 1" offset="944" size="32" />
			<output>
				<port id="0" precision="FP16">
					<dim>1</dim>
					<dim>16</dim>
					<dim>1</dim>
					<dim>1</dim>
				</port>
			</output>
		</layer>
		<layer id="7" name="Reshape_246" type="Convert" version="opset1">
			<data destination_type="f32" />
			<rt_info>
				<attribute name="decompression" version="0" />
			</rt_info>
			<input>
				<port id="0" precision="FP16">
					<dim>1</dim>
					<dim>16</dim>
					<dim>1</dim>
					<dim>1</dim>
				</port>
			</input>
			<output>
				<port id="1" precision="FP32">
					<dim>1</dim>
					<dim>16</dim>
					<dim>1</dim>
					<dim>1</dim>
				</port>
			</output>
		</layer>
		<layer id="8" name="Conv_0" type="Add" version="opset1">
			<data auto_broadcast="numpy" />
			<input>
				<port id="0" precision="FP32">
					<dim>1</dim>
					<dim>16</dim>
					<dim>208</dim>
					<dim>320</dim>
				</port>
				<port id="1" precision="FP32">
					<dim>1</dim>
					<dim>16</dim>
					<dim>1</dim>
					<dim>1</dim>
				</port>
			</input>
			<output>
				<port id="2" precision="FP32" names="onnx::Sigmoid_409">
					<dim>1</dim>
					<dim>16</dim>
					<dim>208</dim>
					<dim>320</dim>
				</port>
			</output>
		</layer>
		<layer id="9" name="Mul_2" type="Swish" version="opset4">
			<input>
				<port id="0" precision="FP32">
					<dim>1</dim>
					<dim>16</dim>
					<dim>208</dim>
					<dim>320</dim>
				</port>
			</input>
			<output>
				<port id="1" precision="FP32" names="input">
					<dim>1</dim>
					<dim>16</dim>
					<dim>208</dim>
					<dim>320</dim>
				</port>
			</output>
		</layer>
		<layer id="10" name="0.model.0.stem_2a.conv.weight_compressed" type="Const" version="opset1">
			<data element_type="f16" shape="8, 16, 1, 1" offset="976" size="256" />
			<output>
				<port id="0" precision="FP16">
					<dim>8</dim>
					<dim>16</dim>
					<dim>1</dim>
					<dim>1</dim>
				</port>
			</output>
		</layer>
		<layer id="11" name="0.model.0.stem_2a.conv.weight" type="Convert" version="opset1">
			<data destination_type="f32" />
			<rt_info>
				<attribute name="decompression" version="0" />
			</rt_info>
			<input>
				<port id="0" precision="FP16">
					<dim>8</dim>
					<dim>16</dim>
					<dim>1</dim>
					<dim>1</dim>
				</port>
			</input>
			<output>
				<port id="1" precision="FP32" names="0.model.0.stem_2a.conv.weight">
					<dim>8</dim>
					<dim>16</dim>
					<dim>1</dim>
					<dim>1</dim>
				</port>
			</output>
		</layer>
		<layer id="12" name="Conv_3/WithoutBiases" type="Convolution" version="opset1">
			<data strides="1, 1" dilations="1, 1" pads_begin="0, 0" pads_end="0, 0" auto_pad="explicit" />
			<input>
				<port id="0" precision="FP32">
					<dim>1</dim>
					<dim>16</dim>
					<dim>208</dim>
					<dim>320</dim>
				</port>
				<port id="1" precision="FP32">
					<dim>8</dim>
					<dim>16</dim>
					<dim>1</dim>
					<dim>1</dim>
				</port>
			</input>
			<output>
				<port id="2" precision="FP32">
					<dim>1</dim>
					<dim>8</dim>
					<dim>208</dim>
					<dim>320</dim>
				</port>
			</output>
		</layer>
		<layer id="13" name="Reshape_296_compressed" type="Const" version="opset1">
			<data element_type="f16" shape="1, 8, 1, 1" offset="1232" size="16" />
			<output>
				<port id="0" precision="FP16">
					<dim>1</dim>
					<dim>8</dim>
					<dim>1</dim>
					<dim>1</dim>
				</port>
			</output>
		</layer>
		<layer id="14" name="Reshape_296" type="Convert" version="opset1">
			<data destination_type="f32" />
			<rt_info>
				<attribute name="decompression" version="0" />
			</rt_info>
			<input>
				<port id="0" precision="FP16">
					<dim>1</dim>
					<dim>8</dim>
					<dim>1</dim>
					<dim>1</dim>
				</port>
			</input>
			<output>
				<port id="1" precision="FP32">
					<dim>1</dim>
					<dim>8</dim>
					<dim>1</dim>
					<dim>1</dim>
				</port>
			</output>
		</layer>
		<layer id="15" name="Conv_3" type="Add" version="opset1">
			<data auto_broadcast="numpy" />
			<input>
				<port id="0" precision="FP32">
					<dim>1</dim>
					<dim>8</dim>
					<dim>208</dim>
					<dim>320</dim>
				</port>
				<port id="1" precision="FP32">
					<dim>1</dim>
					<dim>8</dim>
					<dim>1</dim>
					<dim>1</dim>
				</port>
			</input>
			<output>
				<port id="2" precision="FP32" names="onnx::Sigmoid_412">
					<dim>1</dim>
					<dim>8</dim>
					<dim>208</dim>
					<dim>320</dim>
				</port>
			</output>
		</layer>
		<layer id="16" name="Mul_5" type="Swish" version="opset4">
			<input>
				<port id="0" precision="FP32">
					<dim>1</dim>
					<dim>8</dim>
					<dim>208</dim>
					<dim>320</dim>
				</port>
			</input>
			<output>
				<port id="1" precision="FP32" names="input.4">
					<dim>1</dim>
					<dim>8</dim>
					<dim>208</dim>
					<dim>320</dim>
				</port>
			</output>
		</layer>
		<layer id="17" name="0.model.0.stem_2b.conv.weight_compressed" type="Const" version="opset1">
			<data element_type="f16" shape="16, 8, 3, 3" offset="1248" size="2304" />
			<output>
				<port id="0" precision="FP16">
					<dim>16</dim>
					<dim>8</dim>
					<dim>3</dim>
					<dim>3</dim>
				</port>
			</output>
		</layer>
		<layer id="18" name="0.model.0.stem_2b.conv.weight" type="Convert" version="opset1">
			<data destination_type="f32" />
			<rt_info>
				<attribute name="decompression" version="0" />
			</rt_info>
			<input>
				<port id="0" precision="FP16">
					<dim>16</dim>
					<dim>8</dim>
					<dim>3</dim>
					<dim>3</dim>
				</port>
			</input>
			<output>
				<port id="1" precision="FP32" names="0.model.0.stem_2b.conv.weight">
					<dim>16</dim>
					<dim>8</dim>
					<dim>3</dim>
					<dim>3</dim>
				</port>
			</output>
		</layer>
		<layer id="19" name="Conv_6/WithoutBiases" type="Convolution" version="opset1">
			<data strides="2, 2" dilations="1, 1" pads_begin="1, 1" pads_end="1, 1" auto_pad="explicit" />
			<input>
				<port id="0" precision="FP32">
					<dim>1</dim>
					<dim>8</dim>
					<dim>208</dim>
					<dim>320</dim>
				</port>
				<port id="1" precision="FP32">
					<dim>16</dim>
					<dim>8</dim>
					<dim>3</dim>
					<dim>3</dim>
				</port>
			</input>
			<output>
				<port id="2" precision="FP32">
					<dim>1</dim>
					<dim>16</dim>
					<dim>104</dim>
					<dim>160</dim>
				</port>
			</output>
		</layer>
		<layer id="20" name="Reshape_346_compressed" type="Const" version="opset1">
			<data element_type="f16" shape="1, 16, 1, 1" offset="3552" size="32" />
			<output>
				<port id="0" precision="FP16">
					<dim>1</dim>
					<dim>16</dim>
					<dim>1</dim>
					<dim>1</dim>
				</port>
			</output>
		</layer>
		<layer id="21" name="Reshape_346" type="Convert" version="opset1">
			<data destination_type="f32" />
			<rt_info>
				<attribute name="decompression" version="0" />
			</rt_info>
			<input>
				<port id="0" precision="FP16">
					<dim>1</dim>
					<dim>16</dim>
					<dim>1</dim>
					<dim>1</dim>
				</port>
			</input>
			<output>
				<port id="1" precision="FP32">
					<dim>1</dim>
					<dim>16</dim>
					<dim>1</dim>
					<dim>1</dim>
				</port>
			</output>
		</layer>
		<layer id="22" name="Conv_6" type="Add" version="opset1">
			<data auto_broadcast="numpy" />
			<input>
				<port id="0" precision="FP32">
					<dim>1</dim>
					<dim>16</dim>
					<dim>104</dim>
					<dim>160</dim>
				</port>
				<port id="1" precision="FP32">
					<dim>1</dim>
					<dim>16</dim>
					<dim>1</dim>
					<dim>1</dim>
				</port>
			</input>
			<output>
				<port id="2" precision="FP32" names="onnx::Sigmoid_415">
					<dim>1</dim>
					<dim>16</dim>
					<dim>104</dim>
					<dim>160</dim>
				</port>
			</output>
		</layer>
		<layer id="23" name="Mul_8" type="Swish" version="opset4">
			<input>
				<port id="0" precision="FP32">
					<dim>1</dim>
					<dim>16</dim>
					<dim>104</dim>
					<dim>160</dim>
				</port>
			</input>
			<output>
				<port id="1" precision="FP32" names="onnx::Concat_417">
					<dim>1</dim>
					<dim>16</dim>
					<dim>104</dim>
					<dim>160</dim>
				</port>
			</output>
		</layer>
		<layer id="24" name="MaxPool_9" type="MaxPool" version="opset8">
			<data strides="2, 2" dilations="1, 1" pads_begin="0, 0" pads_end="0, 0" kernel="2, 2" rounding_type="ceil" auto_pad="explicit" index_element_type="i64" axis="0" />
			<input>
				<port id="0" precision="FP32">
					<dim>1</dim>
					<dim>16</dim>
					<dim>208</dim>
					<dim>320</dim>
				</port>
			</input>
			<output>
				<port id="1" precision="FP32" names="onnx::Concat_418">
					<dim>1</dim>
					<dim>16</dim>
					<dim>104</dim>
					<dim>160</dim>
				</port>
				<port id="2" precision="I64">
					<dim>1</dim>
					<dim>16</dim>
					<dim>104</dim>
					<dim>160</dim>
				</port>
			</output>
		</layer>
		<layer id="25" name="Concat_10" type="Concat" version="opset1">
			<data axis="1" />
			<input>
				<port id="0" precision="FP32">
					<dim>1</dim>
					<dim>16</dim>
					<dim>104</dim>
					<dim>160</dim>
				</port>
				<port id="1" precision="FP32">
					<dim>1</dim>
					<dim>16</dim>
					<dim>104</dim>
					<dim>160</dim>
				</port>
			</input>
			<output>
				<port id="2" precision="FP32" names="input.8">
					<dim>1</dim>
					<dim>32</dim>
					<dim>104</dim>
					<dim>160</dim>
				</port>
			</output>
		</layer>
		<layer id="26" name="0.model.0.stem_3.conv.weight_compressed" type="Const" version="opset1">
			<data element_type="f16" shape="16, 32, 1, 1" offset="3584" size="1024" />
			<output>
				<port id="0" precision="FP16">
					<dim>16</dim>
					<dim>32</dim>
					<dim>1</dim>
					<dim>1</dim>
				</port>
			</output>
		</layer>
		<layer id="27" name="0.model.0.stem_3.conv.weight" type="Convert" version="opset1">
			<data destination_type="f32" />
			<rt_info>
				<attribute name="decompression" version="0" />
			</rt_info>
			<input>
				<port id="0" precision="FP16">
					<dim>16</dim>
					<dim>32</dim>
					<dim>1</dim>
					<dim>1</dim>
				</port>
			</input>
			<output>
				<port id="1" precision="FP32" names="0.model.0.stem_3.conv.weight">
					<dim>16</dim>
					<dim>32</dim>
					<dim>1</dim>
					<dim>1</dim>
				</port>
			</output>
		</layer>
		<layer id="28" name="Conv_11/WithoutBiases" type="Convolution" version="opset1">
			<data strides="1, 1" dilations="1, 1" pads_begin="0, 0" pads_end="0, 0" auto_pad="explicit" />
			<input>
				<port id="0" precision="FP32">
					<dim>1</dim>
					<dim>32</dim>
					<dim>104</dim>
					<dim>160</dim>
				</port>
				<port id="1" precision="FP32">
					<dim>16</dim>
					<dim>32</dim>
					<dim>1</dim>
					<dim>1</dim>
				</port>
			</input>
			<output>
				<port id="2" precision="FP32">
					<dim>1</dim>
					<dim>16</dim>
					<dim>104</dim>
					<dim>160</dim>
				</port>
			</output>
		</layer>
		<layer id="29" name="Reshape_398_compressed" type="Const" version="opset1">
			<data element_type="f16" shape="1, 16, 1, 1" offset="4608" size="32" />
			<output>
				<port id="0" precision="FP16">
					<dim>1</dim>
					<dim>16</dim>
					<dim>1</dim>
					<dim>1</dim>
				</port>
			</output>
		</layer>
		<layer id="30" name="Reshape_398" type="Convert" version="opset1">
			<data destination_type="f32" />
			<rt_info>
				<attribute name="decompression" version="0" />
			</rt_info>
			<input>
				<port id="0" precision="FP16">
					<dim>1</dim>
					<dim>16</dim>
					<dim>1</dim>
					<dim>1</dim>
				</port>
			</input>
			<output>
				<port id="1" precision="FP32">
					<dim>1</dim>
					<dim>16</dim>
					<dim>1</dim>
					<dim>1</dim>
				</port>
			</output>
		</layer>
		<layer id="31" name="Conv_11" type="Add" version="opset1">
			<data auto_broadcast="numpy" />
			<input>
				<port id="0" precision="FP32">
					<dim>1</dim>
					<dim>16</dim>
					<dim>104</dim>
					<dim>160</dim>
				</port>
				<port id="1" precision="FP32">
					<dim>1</dim>
					<dim>16</dim>
					<dim>1</dim>
					<dim>1</dim>
				</port>
			</input>
			<output>
				<port id="2" precision="FP32" names="onnx::Sigmoid_420">
					<dim>1</dim>
					<dim>16</dim>
					<dim>104</dim>
					<dim>160</dim>
				</port>
			</output>
		</layer>
		<layer id="32" name="Mul_13" type="Swish" version="opset4">
			<input>
				<port id="0" precision="FP32">
					<dim>1</dim>
					<dim>16</dim>
					<dim>104</dim>
					<dim>160</dim>
				</port>
			</input>
			<output>
				<port id="1" precision="FP32" names="input.12">
					<dim>1</dim>
					<dim>16</dim>
					<dim>104</dim>
					<dim>160</dim>
				</port>
			</output>
		</layer>
		<layer id="33" name="Reshape_435_compressed" type="Const" version="opset1">
			<data element_type="f16" shape="16, 1, 1, 3, 3" offset="4640" size="288" />
			<output>
				<port id="0" precision="FP16">
					<dim>16</dim>
					<dim>1</dim>
					<dim>1</dim>
					<dim>3</dim>
					<dim>3</dim>
				</port>
			</output>
		</layer>
		<layer id="34" name="Reshape_435" type="Convert" version="opset1">
			<data destination_type="f32" />
			<rt_info>
				<attribute name="decompression" version="0" />
			</rt_info>
			<input>
				<port id="0" precision="FP16">
					<dim>16</dim>
					<dim>1</dim>
					<dim>1</dim>
					<dim>3</dim>
					<dim>3</dim>
				</port>
			</input>
			<output>
				<port id="1" precision="FP32">
					<dim>16</dim>
					<dim>1</dim>
					<dim>1</dim>
					<dim>3</dim>
					<dim>3</dim>
				</port>
			</output>
		</layer>
		<layer id="35" name="Conv_14/WithoutBiases" type="GroupConvolution" version="opset1">
			<data strides="2, 2" pads_begin="1, 1" pads_end="1, 1" dilations="1, 1" auto_pad="explicit" />
			<input>
				<port id="0" precision="FP32">
					<dim>1</dim>
					<dim>16</dim>
					<dim>104</dim>
					<dim>160</dim>
				</port>
				<port id="1" precision="FP32">
					<dim>16</dim>
					<dim>1</dim>
					<dim>1</dim>
					<dim>3</dim>
					<dim>3</dim>
				</port>
			</input>
			<output>
				<port id="2" precision="FP32">
					<dim>1</dim>
					<dim>16</dim>
					<dim>52</dim>
					<dim>80</dim>
				</port>
			</output>
		</layer>
		<layer id="36" name="Reshape_521_compressed" type="Const" version="opset1">
			<data element_type="f16" shape="1, 16, 1, 1" offset="4928" size="32" />
			<output>
				<port id="0" precision="FP16">
					<dim>1</dim>
					<dim>16</dim>
					<dim>1</dim>
					<dim>1</dim>
				</port>
			</output>
		</layer>
		<layer id="37" name="Reshape_521" type="Convert" version="opset1">
			<data destination_type="f32" />
			<rt_info>
				<attribute name="decompression" version="0" />
			</rt_info>
			<input>
				<port id="0" precision="FP16">
					<dim>1</dim>
					<dim>16</dim>
					<dim>1</dim>
					<dim>1</dim>
				</port>
			</input>
			<output>
				<port id="1" precision="FP32">
					<dim>1</dim>
					<dim>16</dim>
					<dim>1</dim>
					<dim>1</dim>
				</port>
			</output>
		</layer>
		<layer id="38" name="Conv_14" type="Add" version="opset1">
			<data auto_broadcast="numpy" />
			<input>
				<port id="0" precision="FP32">
					<dim>1</dim>
					<dim>16</dim>
					<dim>52</dim>
					<dim>80</dim>
				</port>
				<port id="1" precision="FP32">
					<dim>1</dim>
					<dim>16</dim>
					<dim>1</dim>
					<dim>1</dim>
				</port>
			</input>
			<output>
				<port id="2" precision="FP32" names="input.20">
					<dim>1</dim>
					<dim>16</dim>
					<dim>52</dim>
					<dim>80</dim>
				</port>
			</output>
		</layer>
		<layer id="39" name="onnx::Conv_1904_compressed" type="Const" version="opset1">
			<data element_type="f16" shape="20, 16, 1, 1" offset="4960" size="640" />
			<output>
				<port id="0" precision="FP16">
					<dim>20</dim>
					<dim>16</dim>
					<dim>1</dim>
					<dim>1</dim>
				</port>
			</output>
		</layer>
		<layer id="40" name="onnx::Conv_1904" type="Convert" version="opset1">
			<data destination_type="f32" />
			<rt_info>
				<attribute name="decompression" version="0" />
			</rt_info>
			<input>
				<port id="0" precision="FP16">
					<dim>20</dim>
					<dim>16</dim>
					<dim>1</dim>
					<dim>1</dim>
				</port>
			</input>
			<output>
				<port id="1" precision="FP32" names="onnx::Conv_1904">
					<dim>20</dim>
					<dim>16</dim>
					<dim>1</dim>
					<dim>1</dim>
				</port>
			</output>
		</layer>
		<layer id="41" name="Conv_15/WithoutBiases" type="Convolution" version="opset1">
			<data strides="1, 1" dilations="1, 1" pads_begin="0, 0" pads_end="0, 0" auto_pad="explicit" />
			<input>
				<port id="0" precision="FP32">
					<dim>1</dim>
					<dim>16</dim>
					<dim>52</dim>
					<dim>80</dim>
				</port>
				<port id="1" precision="FP32">
					<dim>20</dim>
					<dim>16</dim>
					<dim>1</dim>
					<dim>1</dim>
				</port>
			</input>
			<output>
				<port id="2" precision="FP32">
					<dim>1</dim>
					<dim>20</dim>
					<dim>52</dim>
					<dim>80</dim>
				</port>
			</output>
		</layer>
		<layer id="42" name="Reshape_569_compressed" type="Const" version="opset1">
			<data element_type="f16" shape="1, 20, 1, 1" offset="5600" size="40" />
			<output>
				<port id="0" precision="FP16">
					<dim>1</dim>
					<dim>20</dim>
					<dim>1</dim>
					<dim>1</dim>
				</port>
			</output>
		</layer>
		<layer id="43" name="Reshape_569" type="Convert" version="opset1">
			<data destination_type="f32" />
			<rt_info>
				<attribute name="decompression" version="0" />
			</rt_info>
			<input>
				<port id="0" precision="FP16">
					<dim>1</dim>
					<dim>20</dim>
					<dim>1</dim>
					<dim>1</dim>
				</port>
			</input>
			<output>
				<port id="1" precision="FP32">
					<dim>1</dim>
					<dim>20</dim>
					<dim>1</dim>
					<dim>1</dim>
				</port>
			</output>
		</layer>
		<layer id="44" name="Conv_15" type="Add" version="opset1">
			<data auto_broadcast="numpy" />
			<input>
				<port id="0" precision="FP32">
					<dim>1</dim>
					<dim>20</dim>
					<dim>52</dim>
					<dim>80</dim>
				</port>
				<port id="1" precision="FP32">
					<dim>1</dim>
					<dim>20</dim>
					<dim>1</dim>
					<dim>1</dim>
				</port>
			</input>
			<output>
				<port id="2" precision="FP32" names="input.28">
					<dim>1</dim>
					<dim>20</dim>
					<dim>52</dim>
					<dim>80</dim>
				</port>
			</output>
		</layer>
		<layer id="45" name="Mul_17" type="Swish" version="opset4">
			<input>
				<port id="0" precision="FP32">
					<dim>1</dim>
					<dim>20</dim>
					<dim>52</dim>
					<dim>80</dim>
				</port>
			</input>
			<output>
				<port id="1" precision="FP32" names="onnx::Concat_428">
					<dim>1</dim>
					<dim>20</dim>
					<dim>52</dim>
					<dim>80</dim>
				</port>
			</output>
		</layer>
		<layer id="46" name="onnx::Conv_1907_compressed" type="Const" version="opset1">
			<data element_type="f16" shape="20, 16, 1, 1" offset="5640" size="640" />
			<output>
				<port id="0" precision="FP16">
					<dim>20</dim>
					<dim>16</dim>
					<dim>1</dim>
					<dim>1</dim>
				</port>
			</output>
		</layer>
		<layer id="47" name="onnx::Conv_1907" type="Convert" version="opset1">
			<data destination_type="f32" />
			<rt_info>
				<attribute name="decompression" version="0" />
			</rt_info>
			<input>
				<port id="0" precision="FP16">
					<dim>20</dim>
					<dim>16</dim>
					<dim>1</dim>
					<dim>1</dim>
				</port>
			</input>
			<output>
				<port id="1" precision="FP32" names="onnx::Conv_1907">
					<dim>20</dim>
					<dim>16</dim>
					<dim>1</dim>
					<dim>1</dim>
				</port>
			</output>
		</layer>
		<layer id="48" name="Conv_18/WithoutBiases" type="Convolution" version="opset1">
			<data strides="1, 1" dilations="1, 1" pads_begin="0, 0" pads_end="0, 0" auto_pad="explicit" />
			<input>
				<port id="0" precision="FP32">
					<dim>1</dim>
					<dim>16</dim>
					<dim>104</dim>
					<dim>160</dim>
				</port>
				<port id="1" precision="FP32">
					<dim>20</dim>
					<dim>16</dim>
					<dim>1</dim>
					<dim>1</dim>
				</port>
			</input>
			<output>
				<port id="2" precision="FP32">
					<dim>1</dim>
					<dim>20</dim>
					<dim>104</dim>
					<dim>160</dim>
				</port>
			</output>
		</layer>
		<layer id="49" name="Reshape_619_compressed" type="Const" version="opset1">
			<data element_type="f16" shape="1, 20, 1, 1" offset="6280" size="40" />
			<output>
				<port id="0" precision="FP16">
					<dim>1</dim>
					<dim>20</dim>
					<dim>1</dim>
					<dim>1</dim>
				</port>
			</output>
		</layer>
		<layer id="50" name="Reshape_619" type="Convert" version="opset1">
			<data destination_type="f32" />
			<rt_info>
				<attribute name="decompression" version="0" />
			</rt_info>
			<input>
				<port id="0" precision="FP16">
					<dim>1</dim>
					<dim>20</dim>
					<dim>1</dim>
					<dim>1</dim>
				</port>
			</input>
			<output>
				<port id="1" precision="FP32">
					<dim>1</dim>
					<dim>20</dim>
					<dim>1</dim>
					<dim>1</dim>
				</port>
			</output>
		</layer>
		<layer id="51" name="Conv_18" type="Add" version="opset1">
			<data auto_broadcast="numpy" />
			<input>
				<port id="0" precision="FP32">
					<dim>1</dim>
					<dim>20</dim>
					<dim>104</dim>
					<dim>160</dim>
				</port>
				<port id="1" precision="FP32">
					<dim>1</dim>
					<dim>20</dim>
					<dim>1</dim>
					<dim>1</dim>
				</port>
			</input>
			<output>
				<port id="2" precision="FP32" names="input.36">
					<dim>1</dim>
					<dim>20</dim>
					<dim>104</dim>
					<dim>160</dim>
				</port>
			</output>
		</layer>
		<layer id="52" name="Mul_20" type="Swish" version="opset4">
			<input>
				<port id="0" precision="FP32">
					<dim>1</dim>
					<dim>20</dim>
					<dim>104</dim>
					<dim>160</dim>
				</port>
			</input>
			<output>
				<port id="1" precision="FP32" names="onnx::Conv_432">
					<dim>1</dim>
					<dim>20</dim>
					<dim>104</dim>
					<dim>160</dim>
				</port>
			</output>
		</layer>
		<layer id="53" name="Reshape_656_compressed" type="Const" version="opset1">
			<data element_type="f16" shape="20, 1, 1, 3, 3" offset="6320" size="360" />
			<output>
				<port id="0" precision="FP16">
					<dim>20</dim>
					<dim>1</dim>
					<dim>1</dim>
					<dim>3</dim>
					<dim>3</dim>
				</port>
			</output>
		</layer>
		<layer id="54" name="Reshape_656" type="Convert" version="opset1">
			<data destination_type="f32" />
			<rt_info>
				<attribute name="decompression" version="0" />
			</rt_info>
			<input>
				<port id="0" precision="FP16">
					<dim>20</dim>
					<dim>1</dim>
					<dim>1</dim>
					<dim>3</dim>
					<dim>3</dim>
				</port>
			</input>
			<output>
				<port id="1" precision="FP32">
					<dim>20</dim>
					<dim>1</dim>
					<dim>1</dim>
					<dim>3</dim>
					<dim>3</dim>
				</port>
			</output>
		</layer>
		<layer id="55" name="Conv_21/WithoutBiases" type="GroupConvolution" version="opset1">
			<data strides="2, 2" pads_begin="1, 1" pads_end="1, 1" dilations="1, 1" auto_pad="explicit" />
			<input>
				<port id="0" precision="FP32">
					<dim>1</dim>
					<dim>20</dim>
					<dim>104</dim>
					<dim>160</dim>
				</port>
				<port id="1" precision="FP32">
					<dim>20</dim>
					<dim>1</dim>
					<dim>1</dim>
					<dim>3</dim>
					<dim>3</dim>
				</port>
			</input>
			<output>
				<port id="2" precision="FP32">
					<dim>1</dim>
					<dim>20</dim>
					<dim>52</dim>
					<dim>80</dim>
				</port>
			</output>
		</layer>
		<layer id="56" name="Reshape_742_compressed" type="Const" version="opset1">
			<data element_type="f16" shape="1, 20, 1, 1" offset="6680" size="40" />
			<output>
				<port id="0" precision="FP16">
					<dim>1</dim>
					<dim>20</dim>
					<dim>1</dim>
					<dim>1</dim>
				</port>
			</output>
		</layer>
		<layer id="57" name="Reshape_742" type="Convert" version="opset1">
			<data destination_type="f32" />
			<rt_info>
				<attribute name="decompression" version="0" />
			</rt_info>
			<input>
				<port id="0" precision="FP16">
					<dim>1</dim>
					<dim>20</dim>
					<dim>1</dim>
					<dim>1</dim>
				</port>
			</input>
			<output>
				<port id="1" precision="FP32">
					<dim>1</dim>
					<dim>20</dim>
					<dim>1</dim>
					<dim>1</dim>
				</port>
			</output>
		</layer>
		<layer id="58" name="Conv_21" type="Add" version="opset1">
			<data auto_broadcast="numpy" />
			<input>
				<port id="0" precision="FP32">
					<dim>1</dim>
					<dim>20</dim>
					<dim>52</dim>
					<dim>80</dim>
				</port>
				<port id="1" precision="FP32">
					<dim>1</dim>
					<dim>20</dim>
					<dim>1</dim>
					<dim>1</dim>
				</port>
			</input>
			<output>
				<port id="2" precision="FP32" names="input.44">
					<dim>1</dim>
					<dim>20</dim>
					<dim>52</dim>
					<dim>80</dim>
				</port>
			</output>
		</layer>
		<layer id="59" name="onnx::Conv_1913_compressed" type="Const" version="opset1">
			<data element_type="f16" shape="20, 20, 1, 1" offset="6720" size="800" />
			<output>
				<port id="0" precision="FP16">
					<dim>20</dim>
					<dim>20</dim>
					<dim>1</dim>
					<dim>1</dim>
				</port>
			</output>
		</layer>
		<layer id="60" name="onnx::Conv_1913" type="Convert" version="opset1">
			<data destination_type="f32" />
			<rt_info>
				<attribute name="decompression" version="0" />
			</rt_info>
			<input>
				<port id="0" precision="FP16">
					<dim>20</dim>
					<dim>20</dim>
					<dim>1</dim>
					<dim>1</dim>
				</port>
			</input>
			<output>
				<port id="1" precision="FP32" names="onnx::Conv_1913">
					<dim>20</dim>
					<dim>20</dim>
					<dim>1</dim>
					<dim>1</dim>
				</port>
			</output>
		</layer>
		<layer id="61" name="Conv_22/WithoutBiases" type="Convolution" version="opset1">
			<data strides="1, 1" dilations="1, 1" pads_begin="0, 0" pads_end="0, 0" auto_pad="explicit" />
			<input>
				<port id="0" precision="FP32">
					<dim>1</dim>
					<dim>20</dim>
					<dim>52</dim>
					<dim>80</dim>
				</port>
				<port id="1" precision="FP32">
					<dim>20</dim>
					<dim>20</dim>
					<dim>1</dim>
					<dim>1</dim>
				</port>
			</input>
			<output>
				<port id="2" precision="FP32">
					<dim>1</dim>
					<dim>20</dim>
					<dim>52</dim>
					<dim>80</dim>
				</port>
			</output>
		</layer>
		<layer id="62" name="Reshape_790_compressed" type="Const" version="opset1">
			<data element_type="f16" shape="1, 20, 1, 1" offset="7520" size="40" />
			<output>
				<port id="0" precision="FP16">
					<dim>1</dim>
					<dim>20</dim>
					<dim>1</dim>
					<dim>1</dim>
				</port>
			</output>
		</layer>
		<layer id="63" name="Reshape_790" type="Convert" version="opset1">
			<data destination_type="f32" />
			<rt_info>
				<attribute name="decompression" version="0" />
			</rt_info>
			<input>
				<port id="0" precision="FP16">
					<dim>1</dim>
					<dim>20</dim>
					<dim>1</dim>
					<dim>1</dim>
				</port>
			</input>
			<output>
				<port id="1" precision="FP32">
					<dim>1</dim>
					<dim>20</dim>
					<dim>1</dim>
					<dim>1</dim>
				</port>
			</output>
		</layer>
		<layer id="64" name="Conv_22" type="Add" version="opset1">
			<data auto_broadcast="numpy" />
			<input>
				<port id="0" precision="FP32">
					<dim>1</dim>
					<dim>20</dim>
					<dim>52</dim>
					<dim>80</dim>
				</port>
				<port id="1" precision="FP32">
					<dim>1</dim>
					<dim>20</dim>
					<dim>1</dim>
					<dim>1</dim>
				</port>
			</input>
			<output>
				<port id="2" precision="FP32" names="input.52">
					<dim>1</dim>
					<dim>20</dim>
					<dim>52</dim>
					<dim>80</dim>
				</port>
			</output>
		</layer>
		<layer id="65" name="Mul_24" type="Swish" version="opset4">
			<input>
				<port id="0" precision="FP32">
					<dim>1</dim>
					<dim>20</dim>
					<dim>52</dim>
					<dim>80</dim>
				</port>
			</input>
			<output>
				<port id="1" precision="FP32" names="onnx::Concat_438">
					<dim>1</dim>
					<dim>20</dim>
					<dim>52</dim>
					<dim>80</dim>
				</port>
			</output>
		</layer>
		<layer id="66" name="Concat_25" type="Concat" version="opset1">
			<data axis="1" />
			<input>
				<port id="0" precision="FP32">
					<dim>1</dim>
					<dim>20</dim>
					<dim>52</dim>
					<dim>80</dim>
				</port>
				<port id="1" precision="FP32">
					<dim>1</dim>
					<dim>20</dim>
					<dim>52</dim>
					<dim>80</dim>
				</port>
			</input>
			<output>
				<port id="2" precision="FP32" names="out">
					<dim>1</dim>
					<dim>40</dim>
					<dim>52</dim>
					<dim>80</dim>
				</port>
			</output>
		</layer>
		<layer id="67" name="Constant_26" type="Const" version="opset1">
			<data element_type="i64" shape="5" offset="7560" size="40" />
			<output>
				<port id="0" precision="I64" names="onnx::Reshape_440">
					<dim>5</dim>
				</port>
			</output>
		</layer>
		<layer id="68" name="Reshape_27" type="Reshape" version="opset1">
			<data special_zero="true" />
			<input>
				<port id="0" precision="FP32">
					<dim>1</dim>
					<dim>40</dim>
					<dim>52</dim>
					<dim>80</dim>
				</port>
				<port id="1" precision="I64">
					<dim>5</dim>
				</port>
			</input>
			<output>
				<port id="2" precision="FP32" names="onnx::Transpose_441">
					<dim>1</dim>
					<dim>2</dim>
					<dim>20</dim>
					<dim>52</dim>
					<dim>80</dim>
				</port>
			</output>
		</layer>
		<layer id="69" name="Constant_828" type="Const" version="opset1">
			<data element_type="i64" shape="5" offset="7600" size="40" />
			<output>
				<port id="0" precision="I64">
					<dim>5</dim>
				</port>
			</output>
		</layer>
		<layer id="70" name="Transpose_28" type="Transpose" version="opset1">
			<input>
				<port id="0" precision="FP32">
					<dim>1</dim>
					<dim>2</dim>
					<dim>20</dim>
					<dim>52</dim>
					<dim>80</dim>
				</port>
				<port id="1" precision="I64">
					<dim>5</dim>
				</port>
			</input>
			<output>
				<port id="2" precision="FP32" names="onnx::Reshape_442">
					<dim>1</dim>
					<dim>20</dim>
					<dim>2</dim>
					<dim>52</dim>
					<dim>80</dim>
				</port>
			</output>
		</layer>
		<layer id="71" name="Constant_29" type="Const" version="opset1">
			<data element_type="i64" shape="4" offset="7640" size="32" />
			<output>
				<port id="0" precision="I64" names="onnx::Reshape_443">
					<dim>4</dim>
				</port>
			</output>
		</layer>
		<layer id="72" name="Reshape_30" type="Reshape" version="opset1">
			<data special_zero="true" />
			<input>
				<port id="0" precision="FP32">
					<dim>1</dim>
					<dim>20</dim>
					<dim>2</dim>
					<dim>52</dim>
					<dim>80</dim>
				</port>
				<port id="1" precision="I64">
					<dim>4</dim>
				</port>
			</input>
			<output>
				<port id="2" precision="FP32" names="onnx::Shape_444">
					<dim>1</dim>
					<dim>40</dim>
					<dim>52</dim>
					<dim>80</dim>
				</port>
			</output>
		</layer>
		<layer id="73" name="Constant_56156" type="Const" version="opset1">
			<data element_type="i64" shape="2" offset="7672" size="16" />
			<output>
				<port id="0" precision="I64">
					<dim>2</dim>
				</port>
			</output>
		</layer>
		<layer id="74" name="Constant_56157" type="Const" version="opset1">
			<data element_type="i64" shape="2" offset="7672" size="16" />
			<output>
				<port id="0" precision="I64">
					<dim>2</dim>
				</port>
			</output>
		</layer>
		<layer id="75" name="Constant_56153" type="Const" version="opset1">
			<data element_type="i64" shape="1" offset="7688" size="8" />
			<output>
				<port id="0" precision="I64">
					<dim>1</dim>
				</port>
			</output>
		</layer>
		<layer id="76" name="Shape_31" type="ShapeOf" version="opset3">
			<data output_type="i64" />
			<input>
				<port id="0" precision="FP32">
					<dim>1</dim>
					<dim>40</dim>
					<dim>52</dim>
					<dim>80</dim>
				</port>
			</input>
			<output>
				<port id="1" precision="I64" names="onnx::Gather_445">
					<dim>4</dim>
				</port>
			</output>
		</layer>
		<layer id="77" name="Constant_32" type="Const" version="opset1">
			<data element_type="i64" shape="1" offset="7688" size="8" />
			<output>
				<port id="0" precision="I64" names="onnx::Gather_446">
					<dim>1</dim>
				</port>
			</output>
		</layer>
		<layer id="78" name="Constant_839" type="Const" version="opset1">
			<data element_type="i64" shape="" offset="7696" size="8" />
			<output>
				<port id="0" precision="I64" />
			</output>
		</layer>
		<layer id="79" name="Gather_33" type="Gather" version="opset8">
			<data batch_dims="0" />
			<input>
				<port id="0" precision="I64">
					<dim>4</dim>
				</port>
				<port id="1" precision="I64">
					<dim>1</dim>
				</port>
				<port id="2" precision="I64" />
			</input>
			<output>
				<port id="3" precision="I64" names="onnx::Add_447">
					<dim>1</dim>
				</port>
			</output>
		</layer>
		<layer id="80" name="Constant_35" type="Const" version="opset1">
			<data element_type="i64" shape="1" offset="7688" size="8" />
			<output>
				<port id="0" precision="I64" names="onnx::Add_449">
					<dim>1</dim>
				</port>
			</output>
		</layer>
		<layer id="81" name="Add_36" type="Add" version="opset1">
			<data auto_broadcast="numpy" />
			<input>
				<port id="0" precision="I64">
					<dim>1</dim>
				</port>
				<port id="1" precision="I64">
					<dim>1</dim>
				</port>
			</input>
			<output>
				<port id="2" precision="I64" names="onnx::Div_450">
					<dim>1</dim>
				</port>
			</output>
		</layer>
		<layer id="82" name="Constant_37" type="Const" version="opset1">
			<data element_type="i64" shape="1" offset="7704" size="8" />
			<output>
				<port id="0" precision="I64" names="onnx::Div_451">
					<dim>1</dim>
				</port>
			</output>
		</layer>
		<layer id="83" name="Div_38" type="Divide" version="opset1">
			<data auto_broadcast="numpy" m_pythondiv="true" />
			<input>
				<port id="0" precision="I64">
					<dim>1</dim>
				</port>
				<port id="1" precision="I64">
					<dim>1</dim>
				</port>
			</input>
			<output>
				<port id="2" precision="I64" names="onnx::Mul_452,onnx::Slice_454">
					<dim>1</dim>
				</port>
			</output>
		</layer>
		<layer id="84" name="Constant_56152" type="Const" version="opset1">
			<data element_type="i32" shape="1" offset="7712" size="4" />
			<output>
				<port id="0" precision="I32">
					<dim>1</dim>
				</port>
			</output>
		</layer>
		<layer id="85" name="ScatterUpdate_56158" type="ScatterUpdate" version="opset3">
			<input>
				<port id="0" precision="I64">
					<dim>2</dim>
				</port>
				<port id="1" precision="I64">
					<dim>1</dim>
				</port>
				<port id="2" precision="I64">
					<dim>1</dim>
				</port>
				<port id="3" precision="I32">
					<dim>1</dim>
				</port>
			</input>
			<output>
				<port id="4" precision="I64">
					<dim>2</dim>
				</port>
			</output>
		</layer>
		<layer id="86" name="Constant_56161" type="Const" version="opset1">
			<data element_type="i64" shape="2" offset="7716" size="16" />
			<output>
				<port id="0" precision="I64">
					<dim>2</dim>
				</port>
			</output>
		</layer>
		<layer id="87" name="Slice_41" type="StridedSlice" version="opset1">
			<data begin_mask="1, 0" end_mask="1, 0" new_axis_mask="" shrink_axis_mask="" ellipsis_mask="" />
			<input>
				<port id="0" precision="FP32">
					<dim>1</dim>
					<dim>40</dim>
					<dim>52</dim>
					<dim>80</dim>
				</port>
				<port id="1" precision="I64">
					<dim>2</dim>
				</port>
				<port id="2" precision="I64">
					<dim>2</dim>
				</port>
				<port id="3" precision="I64">
					<dim>2</dim>
				</port>
			</input>
			<output>
				<port id="4" precision="FP32" names="onnx::Concat_455">
					<dim>1</dim>
					<dim>20</dim>
					<dim>52</dim>
					<dim>80</dim>
				</port>
			</output>
		</layer>
		<layer id="88" name="Constant_56225" type="Const" version="opset1">
			<data element_type="i64" shape="2" offset="7672" size="16" />
			<output>
				<port id="0" precision="I64">
					<dim>2</dim>
				</port>
			</output>
		</layer>
		<layer id="89" name="Constant_56224" type="Const" version="opset1">
			<data element_type="i64" shape="1" offset="7688" size="8" />
			<output>
				<port id="0" precision="I64">
					<dim>1</dim>
				</port>
			</output>
		</layer>
		<layer id="90" name="Constant_56223" type="Const" version="opset1">
			<data element_type="i32" shape="1" offset="7712" size="4" />
			<output>
				<port id="0" precision="I32">
					<dim>1</dim>
				</port>
			</output>
		</layer>
		<layer id="91" name="ScatterUpdate_56226" type="ScatterUpdate" version="opset3">
			<input>
				<port id="0" precision="I64">
					<dim>2</dim>
				</port>
				<port id="1" precision="I64">
					<dim>1</dim>
				</port>
				<port id="2" precision="I64">
					<dim>1</dim>
				</port>
				<port id="3" precision="I32">
					<dim>1</dim>
				</port>
			</input>
			<output>
				<port id="4" precision="I64">
					<dim>2</dim>
				</port>
			</output>
		</layer>
		<layer id="92" name="Constant_56227" type="Const" version="opset1">
			<data element_type="i64" shape="2" offset="7672" size="16" />
			<output>
				<port id="0" precision="I64">
					<dim>2</dim>
				</port>
			</output>
		</layer>
		<layer id="93" name="Constant_42" type="Const" version="opset1">
			<data element_type="i64" shape="1" offset="7704" size="8" />
			<output>
				<port id="0" precision="I64" names="onnx::Mul_456">
					<dim>1</dim>
				</port>
			</output>
		</layer>
		<layer id="94" name="Mul_43" type="Multiply" version="opset1">
			<data auto_broadcast="numpy" />
			<input>
				<port id="0" precision="I64">
					<dim>1</dim>
				</port>
				<port id="1" precision="I64">
					<dim>1</dim>
				</port>
			</input>
			<output>
				<port id="2" precision="I64" names="onnx::Slice_457">
					<dim>1</dim>
				</port>
			</output>
		</layer>
		<layer id="95" name="ScatterUpdate_56228" type="ScatterUpdate" version="opset3">
			<input>
				<port id="0" precision="I64">
					<dim>2</dim>
				</port>
				<port id="1" precision="I64">
					<dim>1</dim>
				</port>
				<port id="2" precision="I64">
					<dim>1</dim>
				</port>
				<port id="3" precision="I32">
					<dim>1</dim>
				</port>
			</input>
			<output>
				<port id="4" precision="I64">
					<dim>2</dim>
				</port>
			</output>
		</layer>
		<layer id="96" name="Constant_56231" type="Const" version="opset1">
			<data element_type="i64" shape="2" offset="7716" size="16" />
			<output>
				<port id="0" precision="I64">
					<dim>2</dim>
				</port>
			</output>
		</layer>
		<layer id="97" name="Slice_44" type="StridedSlice" version="opset1">
			<data begin_mask="1, 0" end_mask="1, 0" new_axis_mask="" shrink_axis_mask="" ellipsis_mask="" />
			<input>
				<port id="0" precision="FP32">
					<dim>1</dim>
					<dim>40</dim>
					<dim>52</dim>
					<dim>80</dim>
				</port>
				<port id="1" precision="I64">
					<dim>2</dim>
				</port>
				<port id="2" precision="I64">
					<dim>2</dim>
				</port>
				<port id="3" precision="I64">
					<dim>2</dim>
				</port>
			</input>
			<output>
				<port id="4" precision="FP32" names="onnx::Conv_458">
					<dim>1</dim>
					<dim>20</dim>
					<dim>52</dim>
					<dim>80</dim>
				</port>
			</output>
		</layer>
		<layer id="98" name="onnx::Conv_1916_compressed" type="Const" version="opset1">
			<data element_type="f16" shape="20, 20, 1, 1" offset="7732" size="800" />
			<output>
				<port id="0" precision="FP16">
					<dim>20</dim>
					<dim>20</dim>
					<dim>1</dim>
					<dim>1</dim>
				</port>
			</output>
		</layer>
		<layer id="99" name="onnx::Conv_1916" type="Convert" version="opset1">
			<data destination_type="f32" />
			<rt_info>
				<attribute name="decompression" version="0" />
			</rt_info>
			<input>
				<port id="0" precision="FP16">
					<dim>20</dim>
					<dim>20</dim>
					<dim>1</dim>
					<dim>1</dim>
				</port>
			</input>
			<output>
				<port id="1" precision="FP32" names="onnx::Conv_1916">
					<dim>20</dim>
					<dim>20</dim>
					<dim>1</dim>
					<dim>1</dim>
				</port>
			</output>
		</layer>
		<layer id="100" name="Conv_45/WithoutBiases" type="Convolution" version="opset1">
			<data strides="1, 1" dilations="1, 1" pads_begin="0, 0" pads_end="0, 0" auto_pad="explicit" />
			<input>
				<port id="0" precision="FP32">
					<dim>1</dim>
					<dim>20</dim>
					<dim>52</dim>
					<dim>80</dim>
				</port>
				<port id="1" precision="FP32">
					<dim>20</dim>
					<dim>20</dim>
					<dim>1</dim>
					<dim>1</dim>
				</port>
			</input>
			<output>
				<port id="2" precision="FP32">
					<dim>1</dim>
					<dim>20</dim>
					<dim>52</dim>
					<dim>80</dim>
				</port>
			</output>
		</layer>
		<layer id="101" name="Reshape_1005_compressed" type="Const" version="opset1">
			<data element_type="f16" shape="1, 20, 1, 1" offset="8532" size="40" />
			<output>
				<port id="0" precision="FP16">
					<dim>1</dim>
					<dim>20</dim>
					<dim>1</dim>
					<dim>1</dim>
				</port>
			</output>
		</layer>
		<layer id="102" name="Reshape_1005" type="Convert" version="opset1">
			<data destination_type="f32" />
			<rt_info>
				<attribute name="decompression" version="0" />
			</rt_info>
			<input>
				<port id="0" precision="FP16">
					<dim>1</dim>
					<dim>20</dim>
					<dim>1</dim>
					<dim>1</dim>
				</port>
			</input>
			<output>
				<port id="1" precision="FP32">
					<dim>1</dim>
					<dim>20</dim>
					<dim>1</dim>
					<dim>1</dim>
				</port>
			</output>
		</layer>
		<layer id="103" name="Conv_45" type="Add" version="opset1">
			<data auto_broadcast="numpy" />
			<input>
				<port id="0" precision="FP32">
					<dim>1</dim>
					<dim>20</dim>
					<dim>52</dim>
					<dim>80</dim>
				</port>
				<port id="1" precision="FP32">
					<dim>1</dim>
					<dim>20</dim>
					<dim>1</dim>
					<dim>1</dim>
				</port>
			</input>
			<output>
				<port id="2" precision="FP32" names="input.60">
					<dim>1</dim>
					<dim>20</dim>
					<dim>52</dim>
					<dim>80</dim>
				</port>
			</output>
		</layer>
		<layer id="104" name="Mul_47" type="Swish" version="opset4">
			<input>
				<port id="0" precision="FP32">
					<dim>1</dim>
					<dim>20</dim>
					<dim>52</dim>
					<dim>80</dim>
				</port>
			</input>
			<output>
				<port id="1" precision="FP32" names="onnx::Conv_462">
					<dim>1</dim>
					<dim>20</dim>
					<dim>52</dim>
					<dim>80</dim>
				</port>
			</output>
		</layer>
		<layer id="105" name="Reshape_1042_compressed" type="Const" version="opset1">
			<data element_type="f16" shape="20, 1, 1, 3, 3" offset="8572" size="360" />
			<output>
				<port id="0" precision="FP16">
					<dim>20</dim>
					<dim>1</dim>
					<dim>1</dim>
					<dim>3</dim>
					<dim>3</dim>
				</port>
			</output>
		</layer>
		<layer id="106" name="Reshape_1042" type="Convert" version="opset1">
			<data destination_type="f32" />
			<rt_info>
				<attribute name="decompression" version="0" />
			</rt_info>
			<input>
				<port id="0" precision="FP16">
					<dim>20</dim>
					<dim>1</dim>
					<dim>1</dim>
					<dim>3</dim>
					<dim>3</dim>
				</port>
			</input>
			<output>
				<port id="1" precision="FP32">
					<dim>20</dim>
					<dim>1</dim>
					<dim>1</dim>
					<dim>3</dim>
					<dim>3</dim>
				</port>
			</output>
		</layer>
		<layer id="107" name="Conv_48/WithoutBiases" type="GroupConvolution" version="opset1">
			<data strides="1, 1" pads_begin="1, 1" pads_end="1, 1" dilations="1, 1" auto_pad="explicit" />
			<input>
				<port id="0" precision="FP32">
					<dim>1</dim>
					<dim>20</dim>
					<dim>52</dim>
					<dim>80</dim>
				</port>
				<port id="1" precision="FP32">
					<dim>20</dim>
					<dim>1</dim>
					<dim>1</dim>
					<dim>3</dim>
					<dim>3</dim>
				</port>
			</input>
			<output>
				<port id="2" precision="FP32">
					<dim>1</dim>
					<dim>20</dim>
					<dim>52</dim>
					<dim>80</dim>
				</port>
			</output>
		</layer>
		<layer id="108" name="Reshape_1128_compressed" type="Const" version="opset1">
			<data element_type="f16" shape="1, 20, 1, 1" offset="8932" size="40" />
			<output>
				<port id="0" precision="FP16">
					<dim>1</dim>
					<dim>20</dim>
					<dim>1</dim>
					<dim>1</dim>
				</port>
			</output>
		</layer>
		<layer id="109" name="Reshape_1128" type="Convert" version="opset1">
			<data destination_type="f32" />
			<rt_info>
				<attribute name="decompression" version="0" />
			</rt_info>
			<input>
				<port id="0" precision="FP16">
					<dim>1</dim>
					<dim>20</dim>
					<dim>1</dim>
					<dim>1</dim>
				</port>
			</input>
			<output>
				<port id="1" precision="FP32">
					<dim>1</dim>
					<dim>20</dim>
					<dim>1</dim>
					<dim>1</dim>
				</port>
			</output>
		</layer>
		<layer id="110" name="Conv_48" type="Add" version="opset1">
			<data auto_broadcast="numpy" />
			<input>
				<port id="0" precision="FP32">
					<dim>1</dim>
					<dim>20</dim>
					<dim>52</dim>
					<dim>80</dim>
				</port>
				<port id="1" precision="FP32">
					<dim>1</dim>
					<dim>20</dim>
					<dim>1</dim>
					<dim>1</dim>
				</port>
			</input>
			<output>
				<port id="2" precision="FP32" names="input.68">
					<dim>1</dim>
					<dim>20</dim>
					<dim>52</dim>
					<dim>80</dim>
				</port>
			</output>
		</layer>
		<layer id="111" name="onnx::Conv_1922_compressed" type="Const" version="opset1">
			<data element_type="f16" shape="20, 20, 1, 1" offset="8972" size="800" />
			<output>
				<port id="0" precision="FP16">
					<dim>20</dim>
					<dim>20</dim>
					<dim>1</dim>
					<dim>1</dim>
				</port>
			</output>
		</layer>
		<layer id="112" name="onnx::Conv_1922" type="Convert" version="opset1">
			<data destination_type="f32" />
			<rt_info>
				<attribute name="decompression" version="0" />
			</rt_info>
			<input>
				<port id="0" precision="FP16">
					<dim>20</dim>
					<dim>20</dim>
					<dim>1</dim>
					<dim>1</dim>
				</port>
			</input>
			<output>
				<port id="1" precision="FP32" names="onnx::Conv_1922">
					<dim>20</dim>
					<dim>20</dim>
					<dim>1</dim>
					<dim>1</dim>
				</port>
			</output>
		</layer>
		<layer id="113" name="Conv_49/WithoutBiases" type="Convolution" version="opset1">
			<data strides="1, 1" dilations="1, 1" pads_begin="0, 0" pads_end="0, 0" auto_pad="explicit" />
			<input>
				<port id="0" precision="FP32">
					<dim>1</dim>
					<dim>20</dim>
					<dim>52</dim>
					<dim>80</dim>
				</port>
				<port id="1" precision="FP32">
					<dim>20</dim>
					<dim>20</dim>
					<dim>1</dim>
					<dim>1</dim>
				</port>
			</input>
			<output>
				<port id="2" precision="FP32">
					<dim>1</dim>
					<dim>20</dim>
					<dim>52</dim>
					<dim>80</dim>
				</port>
			</output>
		</layer>
		<layer id="114" name="Reshape_1176_compressed" type="Const" version="opset1">
			<data element_type="f16" shape="1, 20, 1, 1" offset="9772" size="40" />
			<output>
				<port id="0" precision="FP16">
					<dim>1</dim>
					<dim>20</dim>
					<dim>1</dim>
					<dim>1</dim>
				</port>
			</output>
		</layer>
		<layer id="115" name="Reshape_1176" type="Convert" version="opset1">
			<data destination_type="f32" />
			<rt_info>
				<attribute name="decompression" version="0" />
			</rt_info>
			<input>
				<port id="0" precision="FP16">
					<dim>1</dim>
					<dim>20</dim>
					<dim>1</dim>
					<dim>1</dim>
				</port>
			</input>
			<output>
				<port id="1" precision="FP32">
					<dim>1</dim>
					<dim>20</dim>
					<dim>1</dim>
					<dim>1</dim>
				</port>
			</output>
		</layer>
		<layer id="116" name="Conv_49" type="Add" version="opset1">
			<data auto_broadcast="numpy" />
			<input>
				<port id="0" precision="FP32">
					<dim>1</dim>
					<dim>20</dim>
					<dim>52</dim>
					<dim>80</dim>
				</port>
				<port id="1" precision="FP32">
					<dim>1</dim>
					<dim>20</dim>
					<dim>1</dim>
					<dim>1</dim>
				</port>
			</input>
			<output>
				<port id="2" precision="FP32" names="input.76">
					<dim>1</dim>
					<dim>20</dim>
					<dim>52</dim>
					<dim>80</dim>
				</port>
			</output>
		</layer>
		<layer id="117" name="Mul_51" type="Swish" version="opset4">
			<input>
				<port id="0" precision="FP32">
					<dim>1</dim>
					<dim>20</dim>
					<dim>52</dim>
					<dim>80</dim>
				</port>
			</input>
			<output>
				<port id="1" precision="FP32" names="onnx::Concat_468">
					<dim>1</dim>
					<dim>20</dim>
					<dim>52</dim>
					<dim>80</dim>
				</port>
			</output>
		</layer>
		<layer id="118" name="Concat_52" type="Concat" version="opset1">
			<data axis="1" />
			<input>
				<port id="0" precision="FP32">
					<dim>1</dim>
					<dim>20</dim>
					<dim>52</dim>
					<dim>80</dim>
				</port>
				<port id="1" precision="FP32">
					<dim>1</dim>
					<dim>20</dim>
					<dim>52</dim>
					<dim>80</dim>
				</port>
			</input>
			<output>
				<port id="2" precision="FP32" names="out.3">
					<dim>1</dim>
					<dim>40</dim>
					<dim>52</dim>
					<dim>80</dim>
				</port>
			</output>
		</layer>
		<layer id="119" name="Constant_53" type="Const" version="opset1">
			<data element_type="i64" shape="5" offset="7560" size="40" />
			<output>
				<port id="0" precision="I64" names="onnx::Reshape_470">
					<dim>5</dim>
				</port>
			</output>
		</layer>
		<layer id="120" name="Reshape_54" type="Reshape" version="opset1">
			<data special_zero="true" />
			<input>
				<port id="0" precision="FP32">
					<dim>1</dim>
					<dim>40</dim>
					<dim>52</dim>
					<dim>80</dim>
				</port>
				<port id="1" precision="I64">
					<dim>5</dim>
				</port>
			</input>
			<output>
				<port id="2" precision="FP32" names="onnx::Transpose_471">
					<dim>1</dim>
					<dim>2</dim>
					<dim>20</dim>
					<dim>52</dim>
					<dim>80</dim>
				</port>
			</output>
		</layer>
		<layer id="121" name="Constant_1214" type="Const" version="opset1">
			<data element_type="i64" shape="5" offset="7600" size="40" />
			<output>
				<port id="0" precision="I64">
					<dim>5</dim>
				</port>
			</output>
		</layer>
		<layer id="122" name="Transpose_55" type="Transpose" version="opset1">
			<input>
				<port id="0" precision="FP32">
					<dim>1</dim>
					<dim>2</dim>
					<dim>20</dim>
					<dim>52</dim>
					<dim>80</dim>
				</port>
				<port id="1" precision="I64">
					<dim>5</dim>
				</port>
			</input>
			<output>
				<port id="2" precision="FP32" names="onnx::Reshape_472">
					<dim>1</dim>
					<dim>20</dim>
					<dim>2</dim>
					<dim>52</dim>
					<dim>80</dim>
				</port>
			</output>
		</layer>
		<layer id="123" name="Constant_56" type="Const" version="opset1">
			<data element_type="i64" shape="4" offset="7640" size="32" />
			<output>
				<port id="0" precision="I64" names="onnx::Reshape_473">
					<dim>4</dim>
				</port>
			</output>
		</layer>
		<layer id="124" name="Reshape_57" type="Reshape" version="opset1">
			<data special_zero="true" />
			<input>
				<port id="0" precision="FP32">
					<dim>1</dim>
					<dim>20</dim>
					<dim>2</dim>
					<dim>52</dim>
					<dim>80</dim>
				</port>
				<port id="1" precision="I64">
					<dim>4</dim>
				</port>
			</input>
			<output>
				<port id="2" precision="FP32" names="onnx::Shape_474">
					<dim>1</dim>
					<dim>40</dim>
					<dim>52</dim>
					<dim>80</dim>
				</port>
			</output>
		</layer>
		<layer id="125" name="Constant_56357" type="Const" version="opset1">
			<data element_type="i64" shape="2" offset="7672" size="16" />
			<output>
				<port id="0" precision="I64">
					<dim>2</dim>
				</port>
			</output>
		</layer>
		<layer id="126" name="Constant_56358" type="Const" version="opset1">
			<data element_type="i64" shape="2" offset="7672" size="16" />
			<output>
				<port id="0" precision="I64">
					<dim>2</dim>
				</port>
			</output>
		</layer>
		<layer id="127" name="Constant_56354" type="Const" version="opset1">
			<data element_type="i64" shape="1" offset="7688" size="8" />
			<output>
				<port id="0" precision="I64">
					<dim>1</dim>
				</port>
			</output>
		</layer>
		<layer id="128" name="Shape_58" type="ShapeOf" version="opset3">
			<data output_type="i64" />
			<input>
				<port id="0" precision="FP32">
					<dim>1</dim>
					<dim>40</dim>
					<dim>52</dim>
					<dim>80</dim>
				</port>
			</input>
			<output>
				<port id="1" precision="I64" names="onnx::Gather_475">
					<dim>4</dim>
				</port>
			</output>
		</layer>
		<layer id="129" name="Constant_59" type="Const" version="opset1">
			<data element_type="i64" shape="1" offset="7688" size="8" />
			<output>
				<port id="0" precision="I64" names="onnx::Gather_476">
					<dim>1</dim>
				</port>
			</output>
		</layer>
		<layer id="130" name="Constant_1225" type="Const" version="opset1">
			<data element_type="i64" shape="" offset="7696" size="8" />
			<output>
				<port id="0" precision="I64" />
			</output>
		</layer>
		<layer id="131" name="Gather_60" type="Gather" version="opset8">
			<data batch_dims="0" />
			<input>
				<port id="0" precision="I64">
					<dim>4</dim>
				</port>
				<port id="1" precision="I64">
					<dim>1</dim>
				</port>
				<port id="2" precision="I64" />
			</input>
			<output>
				<port id="3" precision="I64" names="onnx::Add_477">
					<dim>1</dim>
				</port>
			</output>
		</layer>
		<layer id="132" name="Constant_62" type="Const" version="opset1">
			<data element_type="i64" shape="1" offset="7688" size="8" />
			<output>
				<port id="0" precision="I64" names="onnx::Add_479">
					<dim>1</dim>
				</port>
			</output>
		</layer>
		<layer id="133" name="Add_63" type="Add" version="opset1">
			<data auto_broadcast="numpy" />
			<input>
				<port id="0" precision="I64">
					<dim>1</dim>
				</port>
				<port id="1" precision="I64">
					<dim>1</dim>
				</port>
			</input>
			<output>
				<port id="2" precision="I64" names="onnx::Div_480">
					<dim>1</dim>
				</port>
			</output>
		</layer>
		<layer id="134" name="Constant_64" type="Const" version="opset1">
			<data element_type="i64" shape="1" offset="7704" size="8" />
			<output>
				<port id="0" precision="I64" names="onnx::Div_481">
					<dim>1</dim>
				</port>
			</output>
		</layer>
		<layer id="135" name="Div_65" type="Divide" version="opset1">
			<data auto_broadcast="numpy" m_pythondiv="true" />
			<input>
				<port id="0" precision="I64">
					<dim>1</dim>
				</port>
				<port id="1" precision="I64">
					<dim>1</dim>
				</port>
			</input>
			<output>
				<port id="2" precision="I64" names="onnx::Mul_482,onnx::Slice_484">
					<dim>1</dim>
				</port>
			</output>
		</layer>
		<layer id="136" name="Constant_56353" type="Const" version="opset1">
			<data element_type="i32" shape="1" offset="7712" size="4" />
			<output>
				<port id="0" precision="I32">
					<dim>1</dim>
				</port>
			</output>
		</layer>
		<layer id="137" name="ScatterUpdate_56359" type="ScatterUpdate" version="opset3">
			<input>
				<port id="0" precision="I64">
					<dim>2</dim>
				</port>
				<port id="1" precision="I64">
					<dim>1</dim>
				</port>
				<port id="2" precision="I64">
					<dim>1</dim>
				</port>
				<port id="3" precision="I32">
					<dim>1</dim>
				</port>
			</input>
			<output>
				<port id="4" precision="I64">
					<dim>2</dim>
				</port>
			</output>
		</layer>
		<layer id="138" name="Constant_56362" type="Const" version="opset1">
			<data element_type="i64" shape="2" offset="7716" size="16" />
			<output>
				<port id="0" precision="I64">
					<dim>2</dim>
				</port>
			</output>
		</layer>
		<layer id="139" name="Slice_68" type="StridedSlice" version="opset1">
			<data begin_mask="1, 0" end_mask="1, 0" new_axis_mask="" shrink_axis_mask="" ellipsis_mask="" />
			<input>
				<port id="0" precision="FP32">
					<dim>1</dim>
					<dim>40</dim>
					<dim>52</dim>
					<dim>80</dim>
				</port>
				<port id="1" precision="I64">
					<dim>2</dim>
				</port>
				<port id="2" precision="I64">
					<dim>2</dim>
				</port>
				<port id="3" precision="I64">
					<dim>2</dim>
				</port>
			</input>
			<output>
				<port id="4" precision="FP32" names="onnx::Concat_485">
					<dim>1</dim>
					<dim>20</dim>
					<dim>52</dim>
					<dim>80</dim>
				</port>
			</output>
		</layer>
		<layer id="140" name="Constant_56426" type="Const" version="opset1">
			<data element_type="i64" shape="2" offset="7672" size="16" />
			<output>
				<port id="0" precision="I64">
					<dim>2</dim>
				</port>
			</output>
		</layer>
		<layer id="141" name="Constant_56425" type="Const" version="opset1">
			<data element_type="i64" shape="1" offset="7688" size="8" />
			<output>
				<port id="0" precision="I64">
					<dim>1</dim>
				</port>
			</output>
		</layer>
		<layer id="142" name="Constant_56424" type="Const" version="opset1">
			<data element_type="i32" shape="1" offset="7712" size="4" />
			<output>
				<port id="0" precision="I32">
					<dim>1</dim>
				</port>
			</output>
		</layer>
		<layer id="143" name="ScatterUpdate_56427" type="ScatterUpdate" version="opset3">
			<input>
				<port id="0" precision="I64">
					<dim>2</dim>
				</port>
				<port id="1" precision="I64">
					<dim>1</dim>
				</port>
				<port id="2" precision="I64">
					<dim>1</dim>
				</port>
				<port id="3" precision="I32">
					<dim>1</dim>
				</port>
			</input>
			<output>
				<port id="4" precision="I64">
					<dim>2</dim>
				</port>
			</output>
		</layer>
		<layer id="144" name="Constant_56428" type="Const" version="opset1">
			<data element_type="i64" shape="2" offset="7672" size="16" />
			<output>
				<port id="0" precision="I64">
					<dim>2</dim>
				</port>
			</output>
		</layer>
		<layer id="145" name="Constant_69" type="Const" version="opset1">
			<data element_type="i64" shape="1" offset="7704" size="8" />
			<output>
				<port id="0" precision="I64" names="onnx::Mul_486">
					<dim>1</dim>
				</port>
			</output>
		</layer>
		<layer id="146" name="Mul_70" type="Multiply" version="opset1">
			<data auto_broadcast="numpy" />
			<input>
				<port id="0" precision="I64">
					<dim>1</dim>
				</port>
				<port id="1" precision="I64">
					<dim>1</dim>
				</port>
			</input>
			<output>
				<port id="2" precision="I64" names="onnx::Slice_487">
					<dim>1</dim>
				</port>
			</output>
		</layer>
		<layer id="147" name="ScatterUpdate_56429" type="ScatterUpdate" version="opset3">
			<input>
				<port id="0" precision="I64">
					<dim>2</dim>
				</port>
				<port id="1" precision="I64">
					<dim>1</dim>
				</port>
				<port id="2" precision="I64">
					<dim>1</dim>
				</port>
				<port id="3" precision="I32">
					<dim>1</dim>
				</port>
			</input>
			<output>
				<port id="4" precision="I64">
					<dim>2</dim>
				</port>
			</output>
		</layer>
		<layer id="148" name="Constant_56432" type="Const" version="opset1">
			<data element_type="i64" shape="2" offset="7716" size="16" />
			<output>
				<port id="0" precision="I64">
					<dim>2</dim>
				</port>
			</output>
		</layer>
		<layer id="149" name="Slice_71" type="StridedSlice" version="opset1">
			<data begin_mask="1, 0" end_mask="1, 0" new_axis_mask="" shrink_axis_mask="" ellipsis_mask="" />
			<input>
				<port id="0" precision="FP32">
					<dim>1</dim>
					<dim>40</dim>
					<dim>52</dim>
					<dim>80</dim>
				</port>
				<port id="1" precision="I64">
					<dim>2</dim>
				</port>
				<port id="2" precision="I64">
					<dim>2</dim>
				</port>
				<port id="3" precision="I64">
					<dim>2</dim>
				</port>
			</input>
			<output>
				<port id="4" precision="FP32" names="onnx::Conv_488">
					<dim>1</dim>
					<dim>20</dim>
					<dim>52</dim>
					<dim>80</dim>
				</port>
			</output>
		</layer>
		<layer id="150" name="onnx::Conv_1925_compressed" type="Const" version="opset1">
			<data element_type="f16" shape="20, 20, 1, 1" offset="9812" size="800" />
			<output>
				<port id="0" precision="FP16">
					<dim>20</dim>
					<dim>20</dim>
					<dim>1</dim>
					<dim>1</dim>
				</port>
			</output>
		</layer>
		<layer id="151" name="onnx::Conv_1925" type="Convert" version="opset1">
			<data destination_type="f32" />
			<rt_info>
				<attribute name="decompression" version="0" />
			</rt_info>
			<input>
				<port id="0" precision="FP16">
					<dim>20</dim>
					<dim>20</dim>
					<dim>1</dim>
					<dim>1</dim>
				</port>
			</input>
			<output>
				<port id="1" precision="FP32" names="onnx::Conv_1925">
					<dim>20</dim>
					<dim>20</dim>
					<dim>1</dim>
					<dim>1</dim>
				</port>
			</output>
		</layer>
		<layer id="152" name="Conv_72/WithoutBiases" type="Convolution" version="opset1">
			<data strides="1, 1" dilations="1, 1" pads_begin="0, 0" pads_end="0, 0" auto_pad="explicit" />
			<input>
				<port id="0" precision="FP32">
					<dim>1</dim>
					<dim>20</dim>
					<dim>52</dim>
					<dim>80</dim>
				</port>
				<port id="1" precision="FP32">
					<dim>20</dim>
					<dim>20</dim>
					<dim>1</dim>
					<dim>1</dim>
				</port>
			</input>
			<output>
				<port id="2" precision="FP32">
					<dim>1</dim>
					<dim>20</dim>
					<dim>52</dim>
					<dim>80</dim>
				</port>
			</output>
		</layer>
		<layer id="153" name="Reshape_1391_compressed" type="Const" version="opset1">
			<data element_type="f16" shape="1, 20, 1, 1" offset="10612" size="40" />
			<output>
				<port id="0" precision="FP16">
					<dim>1</dim>
					<dim>20</dim>
					<dim>1</dim>
					<dim>1</dim>
				</port>
			</output>
		</layer>
		<layer id="154" name="Reshape_1391" type="Convert" version="opset1">
			<data destination_type="f32" />
			<rt_info>
				<attribute name="decompression" version="0" />
			</rt_info>
			<input>
				<port id="0" precision="FP16">
					<dim>1</dim>
					<dim>20</dim>
					<dim>1</dim>
					<dim>1</dim>
				</port>
			</input>
			<output>
				<port id="1" precision="FP32">
					<dim>1</dim>
					<dim>20</dim>
					<dim>1</dim>
					<dim>1</dim>
				</port>
			</output>
		</layer>
		<layer id="155" name="Conv_72" type="Add" version="opset1">
			<data auto_broadcast="numpy" />
			<input>
				<port id="0" precision="FP32">
					<dim>1</dim>
					<dim>20</dim>
					<dim>52</dim>
					<dim>80</dim>
				</port>
				<port id="1" precision="FP32">
					<dim>1</dim>
					<dim>20</dim>
					<dim>1</dim>
					<dim>1</dim>
				</port>
			</input>
			<output>
				<port id="2" precision="FP32" names="input.84">
					<dim>1</dim>
					<dim>20</dim>
					<dim>52</dim>
					<dim>80</dim>
				</port>
			</output>
		</layer>
		<layer id="156" name="Mul_74" type="Swish" version="opset4">
			<input>
				<port id="0" precision="FP32">
					<dim>1</dim>
					<dim>20</dim>
					<dim>52</dim>
					<dim>80</dim>
				</port>
			</input>
			<output>
				<port id="1" precision="FP32" names="onnx::Conv_492">
					<dim>1</dim>
					<dim>20</dim>
					<dim>52</dim>
					<dim>80</dim>
				</port>
			</output>
		</layer>
		<layer id="157" name="Reshape_1428_compressed" type="Const" version="opset1">
			<data element_type="f16" shape="20, 1, 1, 3, 3" offset="10652" size="360" />
			<output>
				<port id="0" precision="FP16">
					<dim>20</dim>
					<dim>1</dim>
					<dim>1</dim>
					<dim>3</dim>
					<dim>3</dim>
				</port>
			</output>
		</layer>
		<layer id="158" name="Reshape_1428" type="Convert" version="opset1">
			<data destination_type="f32" />
			<rt_info>
				<attribute name="decompression" version="0" />
			</rt_info>
			<input>
				<port id="0" precision="FP16">
					<dim>20</dim>
					<dim>1</dim>
					<dim>1</dim>
					<dim>3</dim>
					<dim>3</dim>
				</port>
			</input>
			<output>
				<port id="1" precision="FP32">
					<dim>20</dim>
					<dim>1</dim>
					<dim>1</dim>
					<dim>3</dim>
					<dim>3</dim>
				</port>
			</output>
		</layer>
		<layer id="159" name="Conv_75/WithoutBiases" type="GroupConvolution" version="opset1">
			<data strides="1, 1" pads_begin="1, 1" pads_end="1, 1" dilations="1, 1" auto_pad="explicit" />
			<input>
				<port id="0" precision="FP32">
					<dim>1</dim>
					<dim>20</dim>
					<dim>52</dim>
					<dim>80</dim>
				</port>
				<port id="1" precision="FP32">
					<dim>20</dim>
					<dim>1</dim>
					<dim>1</dim>
					<dim>3</dim>
					<dim>3</dim>
				</port>
			</input>
			<output>
				<port id="2" precision="FP32">
					<dim>1</dim>
					<dim>20</dim>
					<dim>52</dim>
					<dim>80</dim>
				</port>
			</output>
		</layer>
		<layer id="160" name="Reshape_1514_compressed" type="Const" version="opset1">
			<data element_type="f16" shape="1, 20, 1, 1" offset="11012" size="40" />
			<output>
				<port id="0" precision="FP16">
					<dim>1</dim>
					<dim>20</dim>
					<dim>1</dim>
					<dim>1</dim>
				</port>
			</output>
		</layer>
		<layer id="161" name="Reshape_1514" type="Convert" version="opset1">
			<data destination_type="f32" />
			<rt_info>
				<attribute name="decompression" version="0" />
			</rt_info>
			<input>
				<port id="0" precision="FP16">
					<dim>1</dim>
					<dim>20</dim>
					<dim>1</dim>
					<dim>1</dim>
				</port>
			</input>
			<output>
				<port id="1" precision="FP32">
					<dim>1</dim>
					<dim>20</dim>
					<dim>1</dim>
					<dim>1</dim>
				</port>
			</output>
		</layer>
		<layer id="162" name="Conv_75" type="Add" version="opset1">
			<data auto_broadcast="numpy" />
			<input>
				<port id="0" precision="FP32">
					<dim>1</dim>
					<dim>20</dim>
					<dim>52</dim>
					<dim>80</dim>
				</port>
				<port id="1" precision="FP32">
					<dim>1</dim>
					<dim>20</dim>
					<dim>1</dim>
					<dim>1</dim>
				</port>
			</input>
			<output>
				<port id="2" precision="FP32" names="input.92">
					<dim>1</dim>
					<dim>20</dim>
					<dim>52</dim>
					<dim>80</dim>
				</port>
			</output>
		</layer>
		<layer id="163" name="onnx::Conv_1931_compressed" type="Const" version="opset1">
			<data element_type="f16" shape="20, 20, 1, 1" offset="11052" size="800" />
			<output>
				<port id="0" precision="FP16">
					<dim>20</dim>
					<dim>20</dim>
					<dim>1</dim>
					<dim>1</dim>
				</port>
			</output>
		</layer>
		<layer id="164" name="onnx::Conv_1931" type="Convert" version="opset1">
			<data destination_type="f32" />
			<rt_info>
				<attribute name="decompression" version="0" />
			</rt_info>
			<input>
				<port id="0" precision="FP16">
					<dim>20</dim>
					<dim>20</dim>
					<dim>1</dim>
					<dim>1</dim>
				</port>
			</input>
			<output>
				<port id="1" precision="FP32" names="onnx::Conv_1931">
					<dim>20</dim>
					<dim>20</dim>
					<dim>1</dim>
					<dim>1</dim>
				</port>
			</output>
		</layer>
		<layer id="165" name="Conv_76/WithoutBiases" type="Convolution" version="opset1">
			<data strides="1, 1" dilations="1, 1" pads_begin="0, 0" pads_end="0, 0" auto_pad="explicit" />
			<input>
				<port id="0" precision="FP32">
					<dim>1</dim>
					<dim>20</dim>
					<dim>52</dim>
					<dim>80</dim>
				</port>
				<port id="1" precision="FP32">
					<dim>20</dim>
					<dim>20</dim>
					<dim>1</dim>
					<dim>1</dim>
				</port>
			</input>
			<output>
				<port id="2" precision="FP32">
					<dim>1</dim>
					<dim>20</dim>
					<dim>52</dim>
					<dim>80</dim>
				</port>
			</output>
		</layer>
		<layer id="166" name="Reshape_1562_compressed" type="Const" version="opset1">
			<data element_type="f16" shape="1, 20, 1, 1" offset="11852" size="40" />
			<output>
				<port id="0" precision="FP16">
					<dim>1</dim>
					<dim>20</dim>
					<dim>1</dim>
					<dim>1</dim>
				</port>
			</output>
		</layer>
		<layer id="167" name="Reshape_1562" type="Convert" version="opset1">
			<data destination_type="f32" />
			<rt_info>
				<attribute name="decompression" version="0" />
			</rt_info>
			<input>
				<port id="0" precision="FP16">
					<dim>1</dim>
					<dim>20</dim>
					<dim>1</dim>
					<dim>1</dim>
				</port>
			</input>
			<output>
				<port id="1" precision="FP32">
					<dim>1</dim>
					<dim>20</dim>
					<dim>1</dim>
					<dim>1</dim>
				</port>
			</output>
		</layer>
		<layer id="168" name="Conv_76" type="Add" version="opset1">
			<data auto_broadcast="numpy" />
			<input>
				<port id="0" precision="FP32">
					<dim>1</dim>
					<dim>20</dim>
					<dim>52</dim>
					<dim>80</dim>
				</port>
				<port id="1" precision="FP32">
					<dim>1</dim>
					<dim>20</dim>
					<dim>1</dim>
					<dim>1</dim>
				</port>
			</input>
			<output>
				<port id="2" precision="FP32" names="input.100">
					<dim>1</dim>
					<dim>20</dim>
					<dim>52</dim>
					<dim>80</dim>
				</port>
			</output>
		</layer>
		<layer id="169" name="Mul_78" type="Swish" version="opset4">
			<input>
				<port id="0" precision="FP32">
					<dim>1</dim>
					<dim>20</dim>
					<dim>52</dim>
					<dim>80</dim>
				</port>
			</input>
			<output>
				<port id="1" precision="FP32" names="onnx::Concat_498">
					<dim>1</dim>
					<dim>20</dim>
					<dim>52</dim>
					<dim>80</dim>
				</port>
			</output>
		</layer>
		<layer id="170" name="Concat_79" type="Concat" version="opset1">
			<data axis="1" />
			<input>
				<port id="0" precision="FP32">
					<dim>1</dim>
					<dim>20</dim>
					<dim>52</dim>
					<dim>80</dim>
				</port>
				<port id="1" precision="FP32">
					<dim>1</dim>
					<dim>20</dim>
					<dim>52</dim>
					<dim>80</dim>
				</port>
			</input>
			<output>
				<port id="2" precision="FP32" names="out.7">
					<dim>1</dim>
					<dim>40</dim>
					<dim>52</dim>
					<dim>80</dim>
				</port>
			</output>
		</layer>
		<layer id="171" name="Constant_80" type="Const" version="opset1">
			<data element_type="i64" shape="5" offset="7560" size="40" />
			<output>
				<port id="0" precision="I64" names="onnx::Reshape_500">
					<dim>5</dim>
				</port>
			</output>
		</layer>
		<layer id="172" name="Reshape_81" type="Reshape" version="opset1">
			<data special_zero="true" />
			<input>
				<port id="0" precision="FP32">
					<dim>1</dim>
					<dim>40</dim>
					<dim>52</dim>
					<dim>80</dim>
				</port>
				<port id="1" precision="I64">
					<dim>5</dim>
				</port>
			</input>
			<output>
				<port id="2" precision="FP32" names="onnx::Transpose_501">
					<dim>1</dim>
					<dim>2</dim>
					<dim>20</dim>
					<dim>52</dim>
					<dim>80</dim>
				</port>
			</output>
		</layer>
		<layer id="173" name="Constant_1600" type="Const" version="opset1">
			<data element_type="i64" shape="5" offset="7600" size="40" />
			<output>
				<port id="0" precision="I64">
					<dim>5</dim>
				</port>
			</output>
		</layer>
		<layer id="174" name="Transpose_82" type="Transpose" version="opset1">
			<input>
				<port id="0" precision="FP32">
					<dim>1</dim>
					<dim>2</dim>
					<dim>20</dim>
					<dim>52</dim>
					<dim>80</dim>
				</port>
				<port id="1" precision="I64">
					<dim>5</dim>
				</port>
			</input>
			<output>
				<port id="2" precision="FP32" names="onnx::Reshape_502">
					<dim>1</dim>
					<dim>20</dim>
					<dim>2</dim>
					<dim>52</dim>
					<dim>80</dim>
				</port>
			</output>
		</layer>
		<layer id="175" name="Constant_83" type="Const" version="opset1">
			<data element_type="i64" shape="4" offset="7640" size="32" />
			<output>
				<port id="0" precision="I64" names="onnx::Reshape_503">
					<dim>4</dim>
				</port>
			</output>
		</layer>
		<layer id="176" name="Reshape_84" type="Reshape" version="opset1">
			<data special_zero="true" />
			<input>
				<port id="0" precision="FP32">
					<dim>1</dim>
					<dim>20</dim>
					<dim>2</dim>
					<dim>52</dim>
					<dim>80</dim>
				</port>
				<port id="1" precision="I64">
					<dim>4</dim>
				</port>
			</input>
			<output>
				<port id="2" precision="FP32" names="input.104">
					<dim>1</dim>
					<dim>40</dim>
					<dim>52</dim>
					<dim>80</dim>
				</port>
			</output>
		</layer>
		<layer id="177" name="Reshape_1616_compressed" type="Const" version="opset1">
			<data element_type="f16" shape="40, 1, 1, 3, 3" offset="11892" size="720" />
			<output>
				<port id="0" precision="FP16">
					<dim>40</dim>
					<dim>1</dim>
					<dim>1</dim>
					<dim>3</dim>
					<dim>3</dim>
				</port>
			</output>
		</layer>
		<layer id="178" name="Reshape_1616" type="Convert" version="opset1">
			<data destination_type="f32" />
			<rt_info>
				<attribute name="decompression" version="0" />
			</rt_info>
			<input>
				<port id="0" precision="FP16">
					<dim>40</dim>
					<dim>1</dim>
					<dim>1</dim>
					<dim>3</dim>
					<dim>3</dim>
				</port>
			</input>
			<output>
				<port id="1" precision="FP32">
					<dim>40</dim>
					<dim>1</dim>
					<dim>1</dim>
					<dim>3</dim>
					<dim>3</dim>
				</port>
			</output>
		</layer>
		<layer id="179" name="Conv_85/WithoutBiases" type="GroupConvolution" version="opset1">
			<data strides="2, 2" pads_begin="1, 1" pads_end="1, 1" dilations="1, 1" auto_pad="explicit" />
			<input>
				<port id="0" precision="FP32">
					<dim>1</dim>
					<dim>40</dim>
					<dim>52</dim>
					<dim>80</dim>
				</port>
				<port id="1" precision="FP32">
					<dim>40</dim>
					<dim>1</dim>
					<dim>1</dim>
					<dim>3</dim>
					<dim>3</dim>
				</port>
			</input>
			<output>
				<port id="2" precision="FP32">
					<dim>1</dim>
					<dim>40</dim>
					<dim>26</dim>
					<dim>40</dim>
				</port>
			</output>
		</layer>
		<layer id="180" name="Reshape_1702_compressed" type="Const" version="opset1">
			<data element_type="f16" shape="1, 40, 1, 1" offset="12612" size="80" />
			<output>
				<port id="0" precision="FP16">
					<dim>1</dim>
					<dim>40</dim>
					<dim>1</dim>
					<dim>1</dim>
				</port>
			</output>
		</layer>
		<layer id="181" name="Reshape_1702" type="Convert" version="opset1">
			<data destination_type="f32" />
			<rt_info>
				<attribute name="decompression" version="0" />
			</rt_info>
			<input>
				<port id="0" precision="FP16">
					<dim>1</dim>
					<dim>40</dim>
					<dim>1</dim>
					<dim>1</dim>
				</port>
			</input>
			<output>
				<port id="1" precision="FP32">
					<dim>1</dim>
					<dim>40</dim>
					<dim>1</dim>
					<dim>1</dim>
				</port>
			</output>
		</layer>
		<layer id="182" name="Conv_85" type="Add" version="opset1">
			<data auto_broadcast="numpy" />
			<input>
				<port id="0" precision="FP32">
					<dim>1</dim>
					<dim>40</dim>
					<dim>26</dim>
					<dim>40</dim>
				</port>
				<port id="1" precision="FP32">
					<dim>1</dim>
					<dim>40</dim>
					<dim>1</dim>
					<dim>1</dim>
				</port>
			</input>
			<output>
				<port id="2" precision="FP32" names="input.112">
					<dim>1</dim>
					<dim>40</dim>
					<dim>26</dim>
					<dim>40</dim>
				</port>
			</output>
		</layer>
		<layer id="183" name="onnx::Conv_1937_compressed" type="Const" version="opset1">
			<data element_type="f16" shape="36, 40, 1, 1" offset="12692" size="2880" />
			<output>
				<port id="0" precision="FP16">
					<dim>36</dim>
					<dim>40</dim>
					<dim>1</dim>
					<dim>1</dim>
				</port>
			</output>
		</layer>
		<layer id="184" name="onnx::Conv_1937" type="Convert" version="opset1">
			<data destination_type="f32" />
			<rt_info>
				<attribute name="decompression" version="0" />
			</rt_info>
			<input>
				<port id="0" precision="FP16">
					<dim>36</dim>
					<dim>40</dim>
					<dim>1</dim>
					<dim>1</dim>
				</port>
			</input>
			<output>
				<port id="1" precision="FP32" names="onnx::Conv_1937">
					<dim>36</dim>
					<dim>40</dim>
					<dim>1</dim>
					<dim>1</dim>
				</port>
			</output>
		</layer>
		<layer id="185" name="Conv_86/WithoutBiases" type="Convolution" version="opset1">
			<data strides="1, 1" dilations="1, 1" pads_begin="0, 0" pads_end="0, 0" auto_pad="explicit" />
			<input>
				<port id="0" precision="FP32">
					<dim>1</dim>
					<dim>40</dim>
					<dim>26</dim>
					<dim>40</dim>
				</port>
				<port id="1" precision="FP32">
					<dim>36</dim>
					<dim>40</dim>
					<dim>1</dim>
					<dim>1</dim>
				</port>
			</input>
			<output>
				<port id="2" precision="FP32">
					<dim>1</dim>
					<dim>36</dim>
					<dim>26</dim>
					<dim>40</dim>
				</port>
			</output>
		</layer>
		<layer id="186" name="Reshape_1750_compressed" type="Const" version="opset1">
			<data element_type="f16" shape="1, 36, 1, 1" offset="15572" size="72" />
			<output>
				<port id="0" precision="FP16">
					<dim>1</dim>
					<dim>36</dim>
					<dim>1</dim>
					<dim>1</dim>
				</port>
			</output>
		</layer>
		<layer id="187" name="Reshape_1750" type="Convert" version="opset1">
			<data destination_type="f32" />
			<rt_info>
				<attribute name="decompression" version="0" />
			</rt_info>
			<input>
				<port id="0" precision="FP16">
					<dim>1</dim>
					<dim>36</dim>
					<dim>1</dim>
					<dim>1</dim>
				</port>
			</input>
			<output>
				<port id="1" precision="FP32">
					<dim>1</dim>
					<dim>36</dim>
					<dim>1</dim>
					<dim>1</dim>
				</port>
			</output>
		</layer>
		<layer id="188" name="Conv_86" type="Add" version="opset1">
			<data auto_broadcast="numpy" />
			<input>
				<port id="0" precision="FP32">
					<dim>1</dim>
					<dim>36</dim>
					<dim>26</dim>
					<dim>40</dim>
				</port>
				<port id="1" precision="FP32">
					<dim>1</dim>
					<dim>36</dim>
					<dim>1</dim>
					<dim>1</dim>
				</port>
			</input>
			<output>
				<port id="2" precision="FP32" names="input.120">
					<dim>1</dim>
					<dim>36</dim>
					<dim>26</dim>
					<dim>40</dim>
				</port>
			</output>
		</layer>
		<layer id="189" name="Mul_88" type="Swish" version="opset4">
			<input>
				<port id="0" precision="FP32">
					<dim>1</dim>
					<dim>36</dim>
					<dim>26</dim>
					<dim>40</dim>
				</port>
			</input>
			<output>
				<port id="1" precision="FP32" names="onnx::Concat_510">
					<dim>1</dim>
					<dim>36</dim>
					<dim>26</dim>
					<dim>40</dim>
				</port>
			</output>
		</layer>
		<layer id="190" name="onnx::Conv_1940_compressed" type="Const" version="opset1">
			<data element_type="f16" shape="36, 40, 1, 1" offset="15644" size="2880" />
			<output>
				<port id="0" precision="FP16">
					<dim>36</dim>
					<dim>40</dim>
					<dim>1</dim>
					<dim>1</dim>
				</port>
			</output>
		</layer>
		<layer id="191" name="onnx::Conv_1940" type="Convert" version="opset1">
			<data destination_type="f32" />
			<rt_info>
				<attribute name="decompression" version="0" />
			</rt_info>
			<input>
				<port id="0" precision="FP16">
					<dim>36</dim>
					<dim>40</dim>
					<dim>1</dim>
					<dim>1</dim>
				</port>
			</input>
			<output>
				<port id="1" precision="FP32" names="onnx::Conv_1940">
					<dim>36</dim>
					<dim>40</dim>
					<dim>1</dim>
					<dim>1</dim>
				</port>
			</output>
		</layer>
		<layer id="192" name="Conv_89/WithoutBiases" type="Convolution" version="opset1">
			<data strides="1, 1" dilations="1, 1" pads_begin="0, 0" pads_end="0, 0" auto_pad="explicit" />
			<input>
				<port id="0" precision="FP32">
					<dim>1</dim>
					<dim>40</dim>
					<dim>52</dim>
					<dim>80</dim>
				</port>
				<port id="1" precision="FP32">
					<dim>36</dim>
					<dim>40</dim>
					<dim>1</dim>
					<dim>1</dim>
				</port>
			</input>
			<output>
				<port id="2" precision="FP32">
					<dim>1</dim>
					<dim>36</dim>
					<dim>52</dim>
					<dim>80</dim>
				</port>
			</output>
		</layer>
		<layer id="193" name="Reshape_1800_compressed" type="Const" version="opset1">
			<data element_type="f16" shape="1, 36, 1, 1" offset="18524" size="72" />
			<output>
				<port id="0" precision="FP16">
					<dim>1</dim>
					<dim>36</dim>
					<dim>1</dim>
					<dim>1</dim>
				</port>
			</output>
		</layer>
		<layer id="194" name="Reshape_1800" type="Convert" version="opset1">
			<data destination_type="f32" />
			<rt_info>
				<attribute name="decompression" version="0" />
			</rt_info>
			<input>
				<port id="0" precision="FP16">
					<dim>1</dim>
					<dim>36</dim>
					<dim>1</dim>
					<dim>1</dim>
				</port>
			</input>
			<output>
				<port id="1" precision="FP32">
					<dim>1</dim>
					<dim>36</dim>
					<dim>1</dim>
					<dim>1</dim>
				</port>
			</output>
		</layer>
		<layer id="195" name="Conv_89" type="Add" version="opset1">
			<data auto_broadcast="numpy" />
			<input>
				<port id="0" precision="FP32">
					<dim>1</dim>
					<dim>36</dim>
					<dim>52</dim>
					<dim>80</dim>
				</port>
				<port id="1" precision="FP32">
					<dim>1</dim>
					<dim>36</dim>
					<dim>1</dim>
					<dim>1</dim>
				</port>
			</input>
			<output>
				<port id="2" precision="FP32" names="input.128">
					<dim>1</dim>
					<dim>36</dim>
					<dim>52</dim>
					<dim>80</dim>
				</port>
			</output>
		</layer>
		<layer id="196" name="Mul_91" type="Swish" version="opset4">
			<input>
				<port id="0" precision="FP32">
					<dim>1</dim>
					<dim>36</dim>
					<dim>52</dim>
					<dim>80</dim>
				</port>
			</input>
			<output>
				<port id="1" precision="FP32" names="onnx::Conv_514">
					<dim>1</dim>
					<dim>36</dim>
					<dim>52</dim>
					<dim>80</dim>
				</port>
			</output>
		</layer>
		<layer id="197" name="Reshape_1837_compressed" type="Const" version="opset1">
			<data element_type="f16" shape="36, 1, 1, 3, 3" offset="18596" size="648" />
			<output>
				<port id="0" precision="FP16">
					<dim>36</dim>
					<dim>1</dim>
					<dim>1</dim>
					<dim>3</dim>
					<dim>3</dim>
				</port>
			</output>
		</layer>
		<layer id="198" name="Reshape_1837" type="Convert" version="opset1">
			<data destination_type="f32" />
			<rt_info>
				<attribute name="decompression" version="0" />
			</rt_info>
			<input>
				<port id="0" precision="FP16">
					<dim>36</dim>
					<dim>1</dim>
					<dim>1</dim>
					<dim>3</dim>
					<dim>3</dim>
				</port>
			</input>
			<output>
				<port id="1" precision="FP32">
					<dim>36</dim>
					<dim>1</dim>
					<dim>1</dim>
					<dim>3</dim>
					<dim>3</dim>
				</port>
			</output>
		</layer>
		<layer id="199" name="Conv_92/WithoutBiases" type="GroupConvolution" version="opset1">
			<data strides="2, 2" pads_begin="1, 1" pads_end="1, 1" dilations="1, 1" auto_pad="explicit" />
			<input>
				<port id="0" precision="FP32">
					<dim>1</dim>
					<dim>36</dim>
					<dim>52</dim>
					<dim>80</dim>
				</port>
				<port id="1" precision="FP32">
					<dim>36</dim>
					<dim>1</dim>
					<dim>1</dim>
					<dim>3</dim>
					<dim>3</dim>
				</port>
			</input>
			<output>
				<port id="2" precision="FP32">
					<dim>1</dim>
					<dim>36</dim>
					<dim>26</dim>
					<dim>40</dim>
				</port>
			</output>
		</layer>
		<layer id="200" name="Reshape_1923_compressed" type="Const" version="opset1">
			<data element_type="f16" shape="1, 36, 1, 1" offset="19244" size="72" />
			<output>
				<port id="0" precision="FP16">
					<dim>1</dim>
					<dim>36</dim>
					<dim>1</dim>
					<dim>1</dim>
				</port>
			</output>
		</layer>
		<layer id="201" name="Reshape_1923" type="Convert" version="opset1">
			<data destination_type="f32" />
			<rt_info>
				<attribute name="decompression" version="0" />
			</rt_info>
			<input>
				<port id="0" precision="FP16">
					<dim>1</dim>
					<dim>36</dim>
					<dim>1</dim>
					<dim>1</dim>
				</port>
			</input>
			<output>
				<port id="1" precision="FP32">
					<dim>1</dim>
					<dim>36</dim>
					<dim>1</dim>
					<dim>1</dim>
				</port>
			</output>
		</layer>
		<layer id="202" name="Conv_92" type="Add" version="opset1">
			<data auto_broadcast="numpy" />
			<input>
				<port id="0" precision="FP32">
					<dim>1</dim>
					<dim>36</dim>
					<dim>26</dim>
					<dim>40</dim>
				</port>
				<port id="1" precision="FP32">
					<dim>1</dim>
					<dim>36</dim>
					<dim>1</dim>
					<dim>1</dim>
				</port>
			</input>
			<output>
				<port id="2" precision="FP32" names="input.136">
					<dim>1</dim>
					<dim>36</dim>
					<dim>26</dim>
					<dim>40</dim>
				</port>
			</output>
		</layer>
		<layer id="203" name="onnx::Conv_1946_compressed" type="Const" version="opset1">
			<data element_type="f16" shape="36, 36, 1, 1" offset="19316" size="2592" />
			<output>
				<port id="0" precision="FP16">
					<dim>36</dim>
					<dim>36</dim>
					<dim>1</dim>
					<dim>1</dim>
				</port>
			</output>
		</layer>
		<layer id="204" name="onnx::Conv_1946" type="Convert" version="opset1">
			<data destination_type="f32" />
			<rt_info>
				<attribute name="decompression" version="0" />
			</rt_info>
			<input>
				<port id="0" precision="FP16">
					<dim>36</dim>
					<dim>36</dim>
					<dim>1</dim>
					<dim>1</dim>
				</port>
			</input>
			<output>
				<port id="1" precision="FP32" names="onnx::Conv_1946">
					<dim>36</dim>
					<dim>36</dim>
					<dim>1</dim>
					<dim>1</dim>
				</port>
			</output>
		</layer>
		<layer id="205" name="Conv_93/WithoutBiases" type="Convolution" version="opset1">
			<data strides="1, 1" dilations="1, 1" pads_begin="0, 0" pads_end="0, 0" auto_pad="explicit" />
			<input>
				<port id="0" precision="FP32">
					<dim>1</dim>
					<dim>36</dim>
					<dim>26</dim>
					<dim>40</dim>
				</port>
				<port id="1" precision="FP32">
					<dim>36</dim>
					<dim>36</dim>
					<dim>1</dim>
					<dim>1</dim>
				</port>
			</input>
			<output>
				<port id="2" precision="FP32">
					<dim>1</dim>
					<dim>36</dim>
					<dim>26</dim>
					<dim>40</dim>
				</port>
			</output>
		</layer>
		<layer id="206" name="Reshape_1971_compressed" type="Const" version="opset1">
			<data element_type="f16" shape="1, 36, 1, 1" offset="21908" size="72" />
			<output>
				<port id="0" precision="FP16">
					<dim>1</dim>
					<dim>36</dim>
					<dim>1</dim>
					<dim>1</dim>
				</port>
			</output>
		</layer>
		<layer id="207" name="Reshape_1971" type="Convert" version="opset1">
			<data destination_type="f32" />
			<rt_info>
				<attribute name="decompression" version="0" />
			</rt_info>
			<input>
				<port id="0" precision="FP16">
					<dim>1</dim>
					<dim>36</dim>
					<dim>1</dim>
					<dim>1</dim>
				</port>
			</input>
			<output>
				<port id="1" precision="FP32">
					<dim>1</dim>
					<dim>36</dim>
					<dim>1</dim>
					<dim>1</dim>
				</port>
			</output>
		</layer>
		<layer id="208" name="Conv_93" type="Add" version="opset1">
			<data auto_broadcast="numpy" />
			<input>
				<port id="0" precision="FP32">
					<dim>1</dim>
					<dim>36</dim>
					<dim>26</dim>
					<dim>40</dim>
				</port>
				<port id="1" precision="FP32">
					<dim>1</dim>
					<dim>36</dim>
					<dim>1</dim>
					<dim>1</dim>
				</port>
			</input>
			<output>
				<port id="2" precision="FP32" names="input.144">
					<dim>1</dim>
					<dim>36</dim>
					<dim>26</dim>
					<dim>40</dim>
				</port>
			</output>
		</layer>
		<layer id="209" name="Mul_95" type="Swish" version="opset4">
			<input>
				<port id="0" precision="FP32">
					<dim>1</dim>
					<dim>36</dim>
					<dim>26</dim>
					<dim>40</dim>
				</port>
			</input>
			<output>
				<port id="1" precision="FP32" names="onnx::Concat_520">
					<dim>1</dim>
					<dim>36</dim>
					<dim>26</dim>
					<dim>40</dim>
				</port>
			</output>
		</layer>
		<layer id="210" name="Concat_96" type="Concat" version="opset1">
			<data axis="1" />
			<input>
				<port id="0" precision="FP32">
					<dim>1</dim>
					<dim>36</dim>
					<dim>26</dim>
					<dim>40</dim>
				</port>
				<port id="1" precision="FP32">
					<dim>1</dim>
					<dim>36</dim>
					<dim>26</dim>
					<dim>40</dim>
				</port>
			</input>
			<output>
				<port id="2" precision="FP32" names="out.11">
					<dim>1</dim>
					<dim>72</dim>
					<dim>26</dim>
					<dim>40</dim>
				</port>
			</output>
		</layer>
		<layer id="211" name="Constant_97" type="Const" version="opset1">
			<data element_type="i64" shape="5" offset="21980" size="40" />
			<output>
				<port id="0" precision="I64" names="onnx::Reshape_522">
					<dim>5</dim>
				</port>
			</output>
		</layer>
		<layer id="212" name="Reshape_98" type="Reshape" version="opset1">
			<data special_zero="true" />
			<input>
				<port id="0" precision="FP32">
					<dim>1</dim>
					<dim>72</dim>
					<dim>26</dim>
					<dim>40</dim>
				</port>
				<port id="1" precision="I64">
					<dim>5</dim>
				</port>
			</input>
			<output>
				<port id="2" precision="FP32" names="onnx::Transpose_523">
					<dim>1</dim>
					<dim>2</dim>
					<dim>36</dim>
					<dim>26</dim>
					<dim>40</dim>
				</port>
			</output>
		</layer>
		<layer id="213" name="Constant_2009" type="Const" version="opset1">
			<data element_type="i64" shape="5" offset="7600" size="40" />
			<output>
				<port id="0" precision="I64">
					<dim>5</dim>
				</port>
			</output>
		</layer>
		<layer id="214" name="Transpose_99" type="Transpose" version="opset1">
			<input>
				<port id="0" precision="FP32">
					<dim>1</dim>
					<dim>2</dim>
					<dim>36</dim>
					<dim>26</dim>
					<dim>40</dim>
				</port>
				<port id="1" precision="I64">
					<dim>5</dim>
				</port>
			</input>
			<output>
				<port id="2" precision="FP32" names="onnx::Reshape_524">
					<dim>1</dim>
					<dim>36</dim>
					<dim>2</dim>
					<dim>26</dim>
					<dim>40</dim>
				</port>
			</output>
		</layer>
		<layer id="215" name="Constant_100" type="Const" version="opset1">
			<data element_type="i64" shape="4" offset="22020" size="32" />
			<output>
				<port id="0" precision="I64" names="onnx::Reshape_525">
					<dim>4</dim>
				</port>
			</output>
		</layer>
		<layer id="216" name="Reshape_101" type="Reshape" version="opset1">
			<data special_zero="true" />
			<input>
				<port id="0" precision="FP32">
					<dim>1</dim>
					<dim>36</dim>
					<dim>2</dim>
					<dim>26</dim>
					<dim>40</dim>
				</port>
				<port id="1" precision="I64">
					<dim>4</dim>
				</port>
			</input>
			<output>
				<port id="2" precision="FP32" names="onnx::Shape_526">
					<dim>1</dim>
					<dim>72</dim>
					<dim>26</dim>
					<dim>40</dim>
				</port>
			</output>
		</layer>
		<layer id="217" name="Constant_56558" type="Const" version="opset1">
			<data element_type="i64" shape="2" offset="7672" size="16" />
			<output>
				<port id="0" precision="I64">
					<dim>2</dim>
				</port>
			</output>
		</layer>
		<layer id="218" name="Constant_56559" type="Const" version="opset1">
			<data element_type="i64" shape="2" offset="7672" size="16" />
			<output>
				<port id="0" precision="I64">
					<dim>2</dim>
				</port>
			</output>
		</layer>
		<layer id="219" name="Constant_56555" type="Const" version="opset1">
			<data element_type="i64" shape="1" offset="7688" size="8" />
			<output>
				<port id="0" precision="I64">
					<dim>1</dim>
				</port>
			</output>
		</layer>
		<layer id="220" name="Shape_102" type="ShapeOf" version="opset3">
			<data output_type="i64" />
			<input>
				<port id="0" precision="FP32">
					<dim>1</dim>
					<dim>72</dim>
					<dim>26</dim>
					<dim>40</dim>
				</port>
			</input>
			<output>
				<port id="1" precision="I64" names="onnx::Gather_527">
					<dim>4</dim>
				</port>
			</output>
		</layer>
		<layer id="221" name="Constant_103" type="Const" version="opset1">
			<data element_type="i64" shape="1" offset="7688" size="8" />
			<output>
				<port id="0" precision="I64" names="onnx::Gather_528">
					<dim>1</dim>
				</port>
			</output>
		</layer>
		<layer id="222" name="Constant_2020" type="Const" version="opset1">
			<data element_type="i64" shape="" offset="7696" size="8" />
			<output>
				<port id="0" precision="I64" />
			</output>
		</layer>
		<layer id="223" name="Gather_104" type="Gather" version="opset8">
			<data batch_dims="0" />
			<input>
				<port id="0" precision="I64">
					<dim>4</dim>
				</port>
				<port id="1" precision="I64">
					<dim>1</dim>
				</port>
				<port id="2" precision="I64" />
			</input>
			<output>
				<port id="3" precision="I64" names="onnx::Add_529">
					<dim>1</dim>
				</port>
			</output>
		</layer>
		<layer id="224" name="Constant_106" type="Const" version="opset1">
			<data element_type="i64" shape="1" offset="7688" size="8" />
			<output>
				<port id="0" precision="I64" names="onnx::Add_531">
					<dim>1</dim>
				</port>
			</output>
		</layer>
		<layer id="225" name="Add_107" type="Add" version="opset1">
			<data auto_broadcast="numpy" />
			<input>
				<port id="0" precision="I64">
					<dim>1</dim>
				</port>
				<port id="1" precision="I64">
					<dim>1</dim>
				</port>
			</input>
			<output>
				<port id="2" precision="I64" names="onnx::Div_532">
					<dim>1</dim>
				</port>
			</output>
		</layer>
		<layer id="226" name="Constant_108" type="Const" version="opset1">
			<data element_type="i64" shape="1" offset="7704" size="8" />
			<output>
				<port id="0" precision="I64" names="onnx::Div_533">
					<dim>1</dim>
				</port>
			</output>
		</layer>
		<layer id="227" name="Div_109" type="Divide" version="opset1">
			<data auto_broadcast="numpy" m_pythondiv="true" />
			<input>
				<port id="0" precision="I64">
					<dim>1</dim>
				</port>
				<port id="1" precision="I64">
					<dim>1</dim>
				</port>
			</input>
			<output>
				<port id="2" precision="I64" names="onnx::Mul_534,onnx::Slice_536">
					<dim>1</dim>
				</port>
			</output>
		</layer>
		<layer id="228" name="Constant_56554" type="Const" version="opset1">
			<data element_type="i32" shape="1" offset="7712" size="4" />
			<output>
				<port id="0" precision="I32">
					<dim>1</dim>
				</port>
			</output>
		</layer>
		<layer id="229" name="ScatterUpdate_56560" type="ScatterUpdate" version="opset3">
			<input>
				<port id="0" precision="I64">
					<dim>2</dim>
				</port>
				<port id="1" precision="I64">
					<dim>1</dim>
				</port>
				<port id="2" precision="I64">
					<dim>1</dim>
				</port>
				<port id="3" precision="I32">
					<dim>1</dim>
				</port>
			</input>
			<output>
				<port id="4" precision="I64">
					<dim>2</dim>
				</port>
			</output>
		</layer>
		<layer id="230" name="Constant_56563" type="Const" version="opset1">
			<data element_type="i64" shape="2" offset="7716" size="16" />
			<output>
				<port id="0" precision="I64">
					<dim>2</dim>
				</port>
			</output>
		</layer>
		<layer id="231" name="Slice_112" type="StridedSlice" version="opset1">
			<data begin_mask="1, 0" end_mask="1, 0" new_axis_mask="" shrink_axis_mask="" ellipsis_mask="" />
			<input>
				<port id="0" precision="FP32">
					<dim>1</dim>
					<dim>72</dim>
					<dim>26</dim>
					<dim>40</dim>
				</port>
				<port id="1" precision="I64">
					<dim>2</dim>
				</port>
				<port id="2" precision="I64">
					<dim>2</dim>
				</port>
				<port id="3" precision="I64">
					<dim>2</dim>
				</port>
			</input>
			<output>
				<port id="4" precision="FP32" names="onnx::Concat_537">
					<dim>1</dim>
					<dim>36</dim>
					<dim>26</dim>
					<dim>40</dim>
				</port>
			</output>
		</layer>
		<layer id="232" name="Constant_56627" type="Const" version="opset1">
			<data element_type="i64" shape="2" offset="7672" size="16" />
			<output>
				<port id="0" precision="I64">
					<dim>2</dim>
				</port>
			</output>
		</layer>
		<layer id="233" name="Constant_56626" type="Const" version="opset1">
			<data element_type="i64" shape="1" offset="7688" size="8" />
			<output>
				<port id="0" precision="I64">
					<dim>1</dim>
				</port>
			</output>
		</layer>
		<layer id="234" name="Constant_56625" type="Const" version="opset1">
			<data element_type="i32" shape="1" offset="7712" size="4" />
			<output>
				<port id="0" precision="I32">
					<dim>1</dim>
				</port>
			</output>
		</layer>
		<layer id="235" name="ScatterUpdate_56628" type="ScatterUpdate" version="opset3">
			<input>
				<port id="0" precision="I64">
					<dim>2</dim>
				</port>
				<port id="1" precision="I64">
					<dim>1</dim>
				</port>
				<port id="2" precision="I64">
					<dim>1</dim>
				</port>
				<port id="3" precision="I32">
					<dim>1</dim>
				</port>
			</input>
			<output>
				<port id="4" precision="I64">
					<dim>2</dim>
				</port>
			</output>
		</layer>
		<layer id="236" name="Constant_56629" type="Const" version="opset1">
			<data element_type="i64" shape="2" offset="7672" size="16" />
			<output>
				<port id="0" precision="I64">
					<dim>2</dim>
				</port>
			</output>
		</layer>
		<layer id="237" name="Constant_113" type="Const" version="opset1">
			<data element_type="i64" shape="1" offset="7704" size="8" />
			<output>
				<port id="0" precision="I64" names="onnx::Mul_538">
					<dim>1</dim>
				</port>
			</output>
		</layer>
		<layer id="238" name="Mul_114" type="Multiply" version="opset1">
			<data auto_broadcast="numpy" />
			<input>
				<port id="0" precision="I64">
					<dim>1</dim>
				</port>
				<port id="1" precision="I64">
					<dim>1</dim>
				</port>
			</input>
			<output>
				<port id="2" precision="I64" names="onnx::Slice_539">
					<dim>1</dim>
				</port>
			</output>
		</layer>
		<layer id="239" name="ScatterUpdate_56630" type="ScatterUpdate" version="opset3">
			<input>
				<port id="0" precision="I64">
					<dim>2</dim>
				</port>
				<port id="1" precision="I64">
					<dim>1</dim>
				</port>
				<port id="2" precision="I64">
					<dim>1</dim>
				</port>
				<port id="3" precision="I32">
					<dim>1</dim>
				</port>
			</input>
			<output>
				<port id="4" precision="I64">
					<dim>2</dim>
				</port>
			</output>
		</layer>
		<layer id="240" name="Constant_56633" type="Const" version="opset1">
			<data element_type="i64" shape="2" offset="7716" size="16" />
			<output>
				<port id="0" precision="I64">
					<dim>2</dim>
				</port>
			</output>
		</layer>
		<layer id="241" name="Slice_115" type="StridedSlice" version="opset1">
			<data begin_mask="1, 0" end_mask="1, 0" new_axis_mask="" shrink_axis_mask="" ellipsis_mask="" />
			<input>
				<port id="0" precision="FP32">
					<dim>1</dim>
					<dim>72</dim>
					<dim>26</dim>
					<dim>40</dim>
				</port>
				<port id="1" precision="I64">
					<dim>2</dim>
				</port>
				<port id="2" precision="I64">
					<dim>2</dim>
				</port>
				<port id="3" precision="I64">
					<dim>2</dim>
				</port>
			</input>
			<output>
				<port id="4" precision="FP32" names="onnx::Conv_540">
					<dim>1</dim>
					<dim>36</dim>
					<dim>26</dim>
					<dim>40</dim>
				</port>
			</output>
		</layer>
		<layer id="242" name="onnx::Conv_1949_compressed" type="Const" version="opset1">
			<data element_type="f16" shape="36, 36, 1, 1" offset="22052" size="2592" />
			<output>
				<port id="0" precision="FP16">
					<dim>36</dim>
					<dim>36</dim>
					<dim>1</dim>
					<dim>1</dim>
				</port>
			</output>
		</layer>
		<layer id="243" name="onnx::Conv_1949" type="Convert" version="opset1">
			<data destination_type="f32" />
			<rt_info>
				<attribute name="decompression" version="0" />
			</rt_info>
			<input>
				<port id="0" precision="FP16">
					<dim>36</dim>
					<dim>36</dim>
					<dim>1</dim>
					<dim>1</dim>
				</port>
			</input>
			<output>
				<port id="1" precision="FP32" names="onnx::Conv_1949">
					<dim>36</dim>
					<dim>36</dim>
					<dim>1</dim>
					<dim>1</dim>
				</port>
			</output>
		</layer>
		<layer id="244" name="Conv_116/WithoutBiases" type="Convolution" version="opset1">
			<data strides="1, 1" dilations="1, 1" pads_begin="0, 0" pads_end="0, 0" auto_pad="explicit" />
			<input>
				<port id="0" precision="FP32">
					<dim>1</dim>
					<dim>36</dim>
					<dim>26</dim>
					<dim>40</dim>
				</port>
				<port id="1" precision="FP32">
					<dim>36</dim>
					<dim>36</dim>
					<dim>1</dim>
					<dim>1</dim>
				</port>
			</input>
			<output>
				<port id="2" precision="FP32">
					<dim>1</dim>
					<dim>36</dim>
					<dim>26</dim>
					<dim>40</dim>
				</port>
			</output>
		</layer>
		<layer id="245" name="Reshape_2186_compressed" type="Const" version="opset1">
			<data element_type="f16" shape="1, 36, 1, 1" offset="24644" size="72" />
			<output>
				<port id="0" precision="FP16">
					<dim>1</dim>
					<dim>36</dim>
					<dim>1</dim>
					<dim>1</dim>
				</port>
			</output>
		</layer>
		<layer id="246" name="Reshape_2186" type="Convert" version="opset1">
			<data destination_type="f32" />
			<rt_info>
				<attribute name="decompression" version="0" />
			</rt_info>
			<input>
				<port id="0" precision="FP16">
					<dim>1</dim>
					<dim>36</dim>
					<dim>1</dim>
					<dim>1</dim>
				</port>
			</input>
			<output>
				<port id="1" precision="FP32">
					<dim>1</dim>
					<dim>36</dim>
					<dim>1</dim>
					<dim>1</dim>
				</port>
			</output>
		</layer>
		<layer id="247" name="Conv_116" type="Add" version="opset1">
			<data auto_broadcast="numpy" />
			<input>
				<port id="0" precision="FP32">
					<dim>1</dim>
					<dim>36</dim>
					<dim>26</dim>
					<dim>40</dim>
				</port>
				<port id="1" precision="FP32">
					<dim>1</dim>
					<dim>36</dim>
					<dim>1</dim>
					<dim>1</dim>
				</port>
			</input>
			<output>
				<port id="2" precision="FP32" names="input.152">
					<dim>1</dim>
					<dim>36</dim>
					<dim>26</dim>
					<dim>40</dim>
				</port>
			</output>
		</layer>
		<layer id="248" name="Mul_118" type="Swish" version="opset4">
			<input>
				<port id="0" precision="FP32">
					<dim>1</dim>
					<dim>36</dim>
					<dim>26</dim>
					<dim>40</dim>
				</port>
			</input>
			<output>
				<port id="1" precision="FP32" names="onnx::Conv_544">
					<dim>1</dim>
					<dim>36</dim>
					<dim>26</dim>
					<dim>40</dim>
				</port>
			</output>
		</layer>
		<layer id="249" name="Reshape_2223_compressed" type="Const" version="opset1">
			<data element_type="f16" shape="36, 1, 1, 3, 3" offset="24716" size="648" />
			<output>
				<port id="0" precision="FP16">
					<dim>36</dim>
					<dim>1</dim>
					<dim>1</dim>
					<dim>3</dim>
					<dim>3</dim>
				</port>
			</output>
		</layer>
		<layer id="250" name="Reshape_2223" type="Convert" version="opset1">
			<data destination_type="f32" />
			<rt_info>
				<attribute name="decompression" version="0" />
			</rt_info>
			<input>
				<port id="0" precision="FP16">
					<dim>36</dim>
					<dim>1</dim>
					<dim>1</dim>
					<dim>3</dim>
					<dim>3</dim>
				</port>
			</input>
			<output>
				<port id="1" precision="FP32">
					<dim>36</dim>
					<dim>1</dim>
					<dim>1</dim>
					<dim>3</dim>
					<dim>3</dim>
				</port>
			</output>
		</layer>
		<layer id="251" name="Conv_119/WithoutBiases" type="GroupConvolution" version="opset1">
			<data strides="1, 1" pads_begin="1, 1" pads_end="1, 1" dilations="1, 1" auto_pad="explicit" />
			<input>
				<port id="0" precision="FP32">
					<dim>1</dim>
					<dim>36</dim>
					<dim>26</dim>
					<dim>40</dim>
				</port>
				<port id="1" precision="FP32">
					<dim>36</dim>
					<dim>1</dim>
					<dim>1</dim>
					<dim>3</dim>
					<dim>3</dim>
				</port>
			</input>
			<output>
				<port id="2" precision="FP32">
					<dim>1</dim>
					<dim>36</dim>
					<dim>26</dim>
					<dim>40</dim>
				</port>
			</output>
		</layer>
		<layer id="252" name="Reshape_2309_compressed" type="Const" version="opset1">
			<data element_type="f16" shape="1, 36, 1, 1" offset="25364" size="72" />
			<output>
				<port id="0" precision="FP16">
					<dim>1</dim>
					<dim>36</dim>
					<dim>1</dim>
					<dim>1</dim>
				</port>
			</output>
		</layer>
		<layer id="253" name="Reshape_2309" type="Convert" version="opset1">
			<data destination_type="f32" />
			<rt_info>
				<attribute name="decompression" version="0" />
			</rt_info>
			<input>
				<port id="0" precision="FP16">
					<dim>1</dim>
					<dim>36</dim>
					<dim>1</dim>
					<dim>1</dim>
				</port>
			</input>
			<output>
				<port id="1" precision="FP32">
					<dim>1</dim>
					<dim>36</dim>
					<dim>1</dim>
					<dim>1</dim>
				</port>
			</output>
		</layer>
		<layer id="254" name="Conv_119" type="Add" version="opset1">
			<data auto_broadcast="numpy" />
			<input>
				<port id="0" precision="FP32">
					<dim>1</dim>
					<dim>36</dim>
					<dim>26</dim>
					<dim>40</dim>
				</port>
				<port id="1" precision="FP32">
					<dim>1</dim>
					<dim>36</dim>
					<dim>1</dim>
					<dim>1</dim>
				</port>
			</input>
			<output>
				<port id="2" precision="FP32" names="input.160">
					<dim>1</dim>
					<dim>36</dim>
					<dim>26</dim>
					<dim>40</dim>
				</port>
			</output>
		</layer>
		<layer id="255" name="onnx::Conv_1955_compressed" type="Const" version="opset1">
			<data element_type="f16" shape="36, 36, 1, 1" offset="25436" size="2592" />
			<output>
				<port id="0" precision="FP16">
					<dim>36</dim>
					<dim>36</dim>
					<dim>1</dim>
					<dim>1</dim>
				</port>
			</output>
		</layer>
		<layer id="256" name="onnx::Conv_1955" type="Convert" version="opset1">
			<data destination_type="f32" />
			<rt_info>
				<attribute name="decompression" version="0" />
			</rt_info>
			<input>
				<port id="0" precision="FP16">
					<dim>36</dim>
					<dim>36</dim>
					<dim>1</dim>
					<dim>1</dim>
				</port>
			</input>
			<output>
				<port id="1" precision="FP32" names="onnx::Conv_1955">
					<dim>36</dim>
					<dim>36</dim>
					<dim>1</dim>
					<dim>1</dim>
				</port>
			</output>
		</layer>
		<layer id="257" name="Conv_120/WithoutBiases" type="Convolution" version="opset1">
			<data strides="1, 1" dilations="1, 1" pads_begin="0, 0" pads_end="0, 0" auto_pad="explicit" />
			<input>
				<port id="0" precision="FP32">
					<dim>1</dim>
					<dim>36</dim>
					<dim>26</dim>
					<dim>40</dim>
				</port>
				<port id="1" precision="FP32">
					<dim>36</dim>
					<dim>36</dim>
					<dim>1</dim>
					<dim>1</dim>
				</port>
			</input>
			<output>
				<port id="2" precision="FP32">
					<dim>1</dim>
					<dim>36</dim>
					<dim>26</dim>
					<dim>40</dim>
				</port>
			</output>
		</layer>
		<layer id="258" name="Reshape_2357_compressed" type="Const" version="opset1">
			<data element_type="f16" shape="1, 36, 1, 1" offset="28028" size="72" />
			<output>
				<port id="0" precision="FP16">
					<dim>1</dim>
					<dim>36</dim>
					<dim>1</dim>
					<dim>1</dim>
				</port>
			</output>
		</layer>
		<layer id="259" name="Reshape_2357" type="Convert" version="opset1">
			<data destination_type="f32" />
			<rt_info>
				<attribute name="decompression" version="0" />
			</rt_info>
			<input>
				<port id="0" precision="FP16">
					<dim>1</dim>
					<dim>36</dim>
					<dim>1</dim>
					<dim>1</dim>
				</port>
			</input>
			<output>
				<port id="1" precision="FP32">
					<dim>1</dim>
					<dim>36</dim>
					<dim>1</dim>
					<dim>1</dim>
				</port>
			</output>
		</layer>
		<layer id="260" name="Conv_120" type="Add" version="opset1">
			<data auto_broadcast="numpy" />
			<input>
				<port id="0" precision="FP32">
					<dim>1</dim>
					<dim>36</dim>
					<dim>26</dim>
					<dim>40</dim>
				</port>
				<port id="1" precision="FP32">
					<dim>1</dim>
					<dim>36</dim>
					<dim>1</dim>
					<dim>1</dim>
				</port>
			</input>
			<output>
				<port id="2" precision="FP32" names="input.168">
					<dim>1</dim>
					<dim>36</dim>
					<dim>26</dim>
					<dim>40</dim>
				</port>
			</output>
		</layer>
		<layer id="261" name="Mul_122" type="Swish" version="opset4">
			<input>
				<port id="0" precision="FP32">
					<dim>1</dim>
					<dim>36</dim>
					<dim>26</dim>
					<dim>40</dim>
				</port>
			</input>
			<output>
				<port id="1" precision="FP32" names="onnx::Concat_550">
					<dim>1</dim>
					<dim>36</dim>
					<dim>26</dim>
					<dim>40</dim>
				</port>
			</output>
		</layer>
		<layer id="262" name="Concat_123" type="Concat" version="opset1">
			<data axis="1" />
			<input>
				<port id="0" precision="FP32">
					<dim>1</dim>
					<dim>36</dim>
					<dim>26</dim>
					<dim>40</dim>
				</port>
				<port id="1" precision="FP32">
					<dim>1</dim>
					<dim>36</dim>
					<dim>26</dim>
					<dim>40</dim>
				</port>
			</input>
			<output>
				<port id="2" precision="FP32" names="out.15">
					<dim>1</dim>
					<dim>72</dim>
					<dim>26</dim>
					<dim>40</dim>
				</port>
			</output>
		</layer>
		<layer id="263" name="Constant_124" type="Const" version="opset1">
			<data element_type="i64" shape="5" offset="21980" size="40" />
			<output>
				<port id="0" precision="I64" names="onnx::Reshape_552">
					<dim>5</dim>
				</port>
			</output>
		</layer>
		<layer id="264" name="Reshape_125" type="Reshape" version="opset1">
			<data special_zero="true" />
			<input>
				<port id="0" precision="FP32">
					<dim>1</dim>
					<dim>72</dim>
					<dim>26</dim>
					<dim>40</dim>
				</port>
				<port id="1" precision="I64">
					<dim>5</dim>
				</port>
			</input>
			<output>
				<port id="2" precision="FP32" names="onnx::Transpose_553">
					<dim>1</dim>
					<dim>2</dim>
					<dim>36</dim>
					<dim>26</dim>
					<dim>40</dim>
				</port>
			</output>
		</layer>
		<layer id="265" name="Constant_2395" type="Const" version="opset1">
			<data element_type="i64" shape="5" offset="7600" size="40" />
			<output>
				<port id="0" precision="I64">
					<dim>5</dim>
				</port>
			</output>
		</layer>
		<layer id="266" name="Transpose_126" type="Transpose" version="opset1">
			<input>
				<port id="0" precision="FP32">
					<dim>1</dim>
					<dim>2</dim>
					<dim>36</dim>
					<dim>26</dim>
					<dim>40</dim>
				</port>
				<port id="1" precision="I64">
					<dim>5</dim>
				</port>
			</input>
			<output>
				<port id="2" precision="FP32" names="onnx::Reshape_554">
					<dim>1</dim>
					<dim>36</dim>
					<dim>2</dim>
					<dim>26</dim>
					<dim>40</dim>
				</port>
			</output>
		</layer>
		<layer id="267" name="Constant_127" type="Const" version="opset1">
			<data element_type="i64" shape="4" offset="22020" size="32" />
			<output>
				<port id="0" precision="I64" names="onnx::Reshape_555">
					<dim>4</dim>
				</port>
			</output>
		</layer>
		<layer id="268" name="Reshape_128" type="Reshape" version="opset1">
			<data special_zero="true" />
			<input>
				<port id="0" precision="FP32">
					<dim>1</dim>
					<dim>36</dim>
					<dim>2</dim>
					<dim>26</dim>
					<dim>40</dim>
				</port>
				<port id="1" precision="I64">
					<dim>4</dim>
				</port>
			</input>
			<output>
				<port id="2" precision="FP32" names="onnx::Shape_556">
					<dim>1</dim>
					<dim>72</dim>
					<dim>26</dim>
					<dim>40</dim>
				</port>
			</output>
		</layer>
		<layer id="269" name="Constant_56759" type="Const" version="opset1">
			<data element_type="i64" shape="2" offset="7672" size="16" />
			<output>
				<port id="0" precision="I64">
					<dim>2</dim>
				</port>
			</output>
		</layer>
		<layer id="270" name="Constant_56760" type="Const" version="opset1">
			<data element_type="i64" shape="2" offset="7672" size="16" />
			<output>
				<port id="0" precision="I64">
					<dim>2</dim>
				</port>
			</output>
		</layer>
		<layer id="271" name="Constant_56756" type="Const" version="opset1">
			<data element_type="i64" shape="1" offset="7688" size="8" />
			<output>
				<port id="0" precision="I64">
					<dim>1</dim>
				</port>
			</output>
		</layer>
		<layer id="272" name="Shape_129" type="ShapeOf" version="opset3">
			<data output_type="i64" />
			<input>
				<port id="0" precision="FP32">
					<dim>1</dim>
					<dim>72</dim>
					<dim>26</dim>
					<dim>40</dim>
				</port>
			</input>
			<output>
				<port id="1" precision="I64" names="onnx::Gather_557">
					<dim>4</dim>
				</port>
			</output>
		</layer>
		<layer id="273" name="Constant_130" type="Const" version="opset1">
			<data element_type="i64" shape="1" offset="7688" size="8" />
			<output>
				<port id="0" precision="I64" names="onnx::Gather_558">
					<dim>1</dim>
				</port>
			</output>
		</layer>
		<layer id="274" name="Constant_2406" type="Const" version="opset1">
			<data element_type="i64" shape="" offset="7696" size="8" />
			<output>
				<port id="0" precision="I64" />
			</output>
		</layer>
		<layer id="275" name="Gather_131" type="Gather" version="opset8">
			<data batch_dims="0" />
			<input>
				<port id="0" precision="I64">
					<dim>4</dim>
				</port>
				<port id="1" precision="I64">
					<dim>1</dim>
				</port>
				<port id="2" precision="I64" />
			</input>
			<output>
				<port id="3" precision="I64" names="onnx::Add_559">
					<dim>1</dim>
				</port>
			</output>
		</layer>
		<layer id="276" name="Constant_133" type="Const" version="opset1">
			<data element_type="i64" shape="1" offset="7688" size="8" />
			<output>
				<port id="0" precision="I64" names="onnx::Add_561">
					<dim>1</dim>
				</port>
			</output>
		</layer>
		<layer id="277" name="Add_134" type="Add" version="opset1">
			<data auto_broadcast="numpy" />
			<input>
				<port id="0" precision="I64">
					<dim>1</dim>
				</port>
				<port id="1" precision="I64">
					<dim>1</dim>
				</port>
			</input>
			<output>
				<port id="2" precision="I64" names="onnx::Div_562">
					<dim>1</dim>
				</port>
			</output>
		</layer>
		<layer id="278" name="Constant_135" type="Const" version="opset1">
			<data element_type="i64" shape="1" offset="7704" size="8" />
			<output>
				<port id="0" precision="I64" names="onnx::Div_563">
					<dim>1</dim>
				</port>
			</output>
		</layer>
		<layer id="279" name="Div_136" type="Divide" version="opset1">
			<data auto_broadcast="numpy" m_pythondiv="true" />
			<input>
				<port id="0" precision="I64">
					<dim>1</dim>
				</port>
				<port id="1" precision="I64">
					<dim>1</dim>
				</port>
			</input>
			<output>
				<port id="2" precision="I64" names="onnx::Mul_564,onnx::Slice_566">
					<dim>1</dim>
				</port>
			</output>
		</layer>
		<layer id="280" name="Constant_56755" type="Const" version="opset1">
			<data element_type="i32" shape="1" offset="7712" size="4" />
			<output>
				<port id="0" precision="I32">
					<dim>1</dim>
				</port>
			</output>
		</layer>
		<layer id="281" name="ScatterUpdate_56761" type="ScatterUpdate" version="opset3">
			<input>
				<port id="0" precision="I64">
					<dim>2</dim>
				</port>
				<port id="1" precision="I64">
					<dim>1</dim>
				</port>
				<port id="2" precision="I64">
					<dim>1</dim>
				</port>
				<port id="3" precision="I32">
					<dim>1</dim>
				</port>
			</input>
			<output>
				<port id="4" precision="I64">
					<dim>2</dim>
				</port>
			</output>
		</layer>
		<layer id="282" name="Constant_56764" type="Const" version="opset1">
			<data element_type="i64" shape="2" offset="7716" size="16" />
			<output>
				<port id="0" precision="I64">
					<dim>2</dim>
				</port>
			</output>
		</layer>
		<layer id="283" name="Slice_139" type="StridedSlice" version="opset1">
			<data begin_mask="1, 0" end_mask="1, 0" new_axis_mask="" shrink_axis_mask="" ellipsis_mask="" />
			<input>
				<port id="0" precision="FP32">
					<dim>1</dim>
					<dim>72</dim>
					<dim>26</dim>
					<dim>40</dim>
				</port>
				<port id="1" precision="I64">
					<dim>2</dim>
				</port>
				<port id="2" precision="I64">
					<dim>2</dim>
				</port>
				<port id="3" precision="I64">
					<dim>2</dim>
				</port>
			</input>
			<output>
				<port id="4" precision="FP32" names="onnx::Concat_567">
					<dim>1</dim>
					<dim>36</dim>
					<dim>26</dim>
					<dim>40</dim>
				</port>
			</output>
		</layer>
		<layer id="284" name="Constant_56828" type="Const" version="opset1">
			<data element_type="i64" shape="2" offset="7672" size="16" />
			<output>
				<port id="0" precision="I64">
					<dim>2</dim>
				</port>
			</output>
		</layer>
		<layer id="285" name="Constant_56827" type="Const" version="opset1">
			<data element_type="i64" shape="1" offset="7688" size="8" />
			<output>
				<port id="0" precision="I64">
					<dim>1</dim>
				</port>
			</output>
		</layer>
		<layer id="286" name="Constant_56826" type="Const" version="opset1">
			<data element_type="i32" shape="1" offset="7712" size="4" />
			<output>
				<port id="0" precision="I32">
					<dim>1</dim>
				</port>
			</output>
		</layer>
		<layer id="287" name="ScatterUpdate_56829" type="ScatterUpdate" version="opset3">
			<input>
				<port id="0" precision="I64">
					<dim>2</dim>
				</port>
				<port id="1" precision="I64">
					<dim>1</dim>
				</port>
				<port id="2" precision="I64">
					<dim>1</dim>
				</port>
				<port id="3" precision="I32">
					<dim>1</dim>
				</port>
			</input>
			<output>
				<port id="4" precision="I64">
					<dim>2</dim>
				</port>
			</output>
		</layer>
		<layer id="288" name="Constant_56830" type="Const" version="opset1">
			<data element_type="i64" shape="2" offset="7672" size="16" />
			<output>
				<port id="0" precision="I64">
					<dim>2</dim>
				</port>
			</output>
		</layer>
		<layer id="289" name="Constant_140" type="Const" version="opset1">
			<data element_type="i64" shape="1" offset="7704" size="8" />
			<output>
				<port id="0" precision="I64" names="onnx::Mul_568">
					<dim>1</dim>
				</port>
			</output>
		</layer>
		<layer id="290" name="Mul_141" type="Multiply" version="opset1">
			<data auto_broadcast="numpy" />
			<input>
				<port id="0" precision="I64">
					<dim>1</dim>
				</port>
				<port id="1" precision="I64">
					<dim>1</dim>
				</port>
			</input>
			<output>
				<port id="2" precision="I64" names="onnx::Slice_569">
					<dim>1</dim>
				</port>
			</output>
		</layer>
		<layer id="291" name="ScatterUpdate_56831" type="ScatterUpdate" version="opset3">
			<input>
				<port id="0" precision="I64">
					<dim>2</dim>
				</port>
				<port id="1" precision="I64">
					<dim>1</dim>
				</port>
				<port id="2" precision="I64">
					<dim>1</dim>
				</port>
				<port id="3" precision="I32">
					<dim>1</dim>
				</port>
			</input>
			<output>
				<port id="4" precision="I64">
					<dim>2</dim>
				</port>
			</output>
		</layer>
		<layer id="292" name="Constant_56834" type="Const" version="opset1">
			<data element_type="i64" shape="2" offset="7716" size="16" />
			<output>
				<port id="0" precision="I64">
					<dim>2</dim>
				</port>
			</output>
		</layer>
		<layer id="293" name="Slice_142" type="StridedSlice" version="opset1">
			<data begin_mask="1, 0" end_mask="1, 0" new_axis_mask="" shrink_axis_mask="" ellipsis_mask="" />
			<input>
				<port id="0" precision="FP32">
					<dim>1</dim>
					<dim>72</dim>
					<dim>26</dim>
					<dim>40</dim>
				</port>
				<port id="1" precision="I64">
					<dim>2</dim>
				</port>
				<port id="2" precision="I64">
					<dim>2</dim>
				</port>
				<port id="3" precision="I64">
					<dim>2</dim>
				</port>
			</input>
			<output>
				<port id="4" precision="FP32" names="onnx::Conv_570">
					<dim>1</dim>
					<dim>36</dim>
					<dim>26</dim>
					<dim>40</dim>
				</port>
			</output>
		</layer>
		<layer id="294" name="onnx::Conv_1958_compressed" type="Const" version="opset1">
			<data element_type="f16" shape="36, 36, 1, 1" offset="28100" size="2592" />
			<output>
				<port id="0" precision="FP16">
					<dim>36</dim>
					<dim>36</dim>
					<dim>1</dim>
					<dim>1</dim>
				</port>
			</output>
		</layer>
		<layer id="295" name="onnx::Conv_1958" type="Convert" version="opset1">
			<data destination_type="f32" />
			<rt_info>
				<attribute name="decompression" version="0" />
			</rt_info>
			<input>
				<port id="0" precision="FP16">
					<dim>36</dim>
					<dim>36</dim>
					<dim>1</dim>
					<dim>1</dim>
				</port>
			</input>
			<output>
				<port id="1" precision="FP32" names="onnx::Conv_1958">
					<dim>36</dim>
					<dim>36</dim>
					<dim>1</dim>
					<dim>1</dim>
				</port>
			</output>
		</layer>
		<layer id="296" name="Conv_143/WithoutBiases" type="Convolution" version="opset1">
			<data strides="1, 1" dilations="1, 1" pads_begin="0, 0" pads_end="0, 0" auto_pad="explicit" />
			<input>
				<port id="0" precision="FP32">
					<dim>1</dim>
					<dim>36</dim>
					<dim>26</dim>
					<dim>40</dim>
				</port>
				<port id="1" precision="FP32">
					<dim>36</dim>
					<dim>36</dim>
					<dim>1</dim>
					<dim>1</dim>
				</port>
			</input>
			<output>
				<port id="2" precision="FP32">
					<dim>1</dim>
					<dim>36</dim>
					<dim>26</dim>
					<dim>40</dim>
				</port>
			</output>
		</layer>
		<layer id="297" name="Reshape_2572_compressed" type="Const" version="opset1">
			<data element_type="f16" shape="1, 36, 1, 1" offset="30692" size="72" />
			<output>
				<port id="0" precision="FP16">
					<dim>1</dim>
					<dim>36</dim>
					<dim>1</dim>
					<dim>1</dim>
				</port>
			</output>
		</layer>
		<layer id="298" name="Reshape_2572" type="Convert" version="opset1">
			<data destination_type="f32" />
			<rt_info>
				<attribute name="decompression" version="0" />
			</rt_info>
			<input>
				<port id="0" precision="FP16">
					<dim>1</dim>
					<dim>36</dim>
					<dim>1</dim>
					<dim>1</dim>
				</port>
			</input>
			<output>
				<port id="1" precision="FP32">
					<dim>1</dim>
					<dim>36</dim>
					<dim>1</dim>
					<dim>1</dim>
				</port>
			</output>
		</layer>
		<layer id="299" name="Conv_143" type="Add" version="opset1">
			<data auto_broadcast="numpy" />
			<input>
				<port id="0" precision="FP32">
					<dim>1</dim>
					<dim>36</dim>
					<dim>26</dim>
					<dim>40</dim>
				</port>
				<port id="1" precision="FP32">
					<dim>1</dim>
					<dim>36</dim>
					<dim>1</dim>
					<dim>1</dim>
				</port>
			</input>
			<output>
				<port id="2" precision="FP32" names="input.176">
					<dim>1</dim>
					<dim>36</dim>
					<dim>26</dim>
					<dim>40</dim>
				</port>
			</output>
		</layer>
		<layer id="300" name="Mul_145" type="Swish" version="opset4">
			<input>
				<port id="0" precision="FP32">
					<dim>1</dim>
					<dim>36</dim>
					<dim>26</dim>
					<dim>40</dim>
				</port>
			</input>
			<output>
				<port id="1" precision="FP32" names="onnx::Conv_574">
					<dim>1</dim>
					<dim>36</dim>
					<dim>26</dim>
					<dim>40</dim>
				</port>
			</output>
		</layer>
		<layer id="301" name="Reshape_2609_compressed" type="Const" version="opset1">
			<data element_type="f16" shape="36, 1, 1, 3, 3" offset="30764" size="648" />
			<output>
				<port id="0" precision="FP16">
					<dim>36</dim>
					<dim>1</dim>
					<dim>1</dim>
					<dim>3</dim>
					<dim>3</dim>
				</port>
			</output>
		</layer>
		<layer id="302" name="Reshape_2609" type="Convert" version="opset1">
			<data destination_type="f32" />
			<rt_info>
				<attribute name="decompression" version="0" />
			</rt_info>
			<input>
				<port id="0" precision="FP16">
					<dim>36</dim>
					<dim>1</dim>
					<dim>1</dim>
					<dim>3</dim>
					<dim>3</dim>
				</port>
			</input>
			<output>
				<port id="1" precision="FP32">
					<dim>36</dim>
					<dim>1</dim>
					<dim>1</dim>
					<dim>3</dim>
					<dim>3</dim>
				</port>
			</output>
		</layer>
		<layer id="303" name="Conv_146/WithoutBiases" type="GroupConvolution" version="opset1">
			<data strides="1, 1" pads_begin="1, 1" pads_end="1, 1" dilations="1, 1" auto_pad="explicit" />
			<input>
				<port id="0" precision="FP32">
					<dim>1</dim>
					<dim>36</dim>
					<dim>26</dim>
					<dim>40</dim>
				</port>
				<port id="1" precision="FP32">
					<dim>36</dim>
					<dim>1</dim>
					<dim>1</dim>
					<dim>3</dim>
					<dim>3</dim>
				</port>
			</input>
			<output>
				<port id="2" precision="FP32">
					<dim>1</dim>
					<dim>36</dim>
					<dim>26</dim>
					<dim>40</dim>
				</port>
			</output>
		</layer>
		<layer id="304" name="Reshape_2695_compressed" type="Const" version="opset1">
			<data element_type="f16" shape="1, 36, 1, 1" offset="31412" size="72" />
			<output>
				<port id="0" precision="FP16">
					<dim>1</dim>
					<dim>36</dim>
					<dim>1</dim>
					<dim>1</dim>
				</port>
			</output>
		</layer>
		<layer id="305" name="Reshape_2695" type="Convert" version="opset1">
			<data destination_type="f32" />
			<rt_info>
				<attribute name="decompression" version="0" />
			</rt_info>
			<input>
				<port id="0" precision="FP16">
					<dim>1</dim>
					<dim>36</dim>
					<dim>1</dim>
					<dim>1</dim>
				</port>
			</input>
			<output>
				<port id="1" precision="FP32">
					<dim>1</dim>
					<dim>36</dim>
					<dim>1</dim>
					<dim>1</dim>
				</port>
			</output>
		</layer>
		<layer id="306" name="Conv_146" type="Add" version="opset1">
			<data auto_broadcast="numpy" />
			<input>
				<port id="0" precision="FP32">
					<dim>1</dim>
					<dim>36</dim>
					<dim>26</dim>
					<dim>40</dim>
				</port>
				<port id="1" precision="FP32">
					<dim>1</dim>
					<dim>36</dim>
					<dim>1</dim>
					<dim>1</dim>
				</port>
			</input>
			<output>
				<port id="2" precision="FP32" names="input.184">
					<dim>1</dim>
					<dim>36</dim>
					<dim>26</dim>
					<dim>40</dim>
				</port>
			</output>
		</layer>
		<layer id="307" name="onnx::Conv_1964_compressed" type="Const" version="opset1">
			<data element_type="f16" shape="36, 36, 1, 1" offset="31484" size="2592" />
			<output>
				<port id="0" precision="FP16">
					<dim>36</dim>
					<dim>36</dim>
					<dim>1</dim>
					<dim>1</dim>
				</port>
			</output>
		</layer>
		<layer id="308" name="onnx::Conv_1964" type="Convert" version="opset1">
			<data destination_type="f32" />
			<rt_info>
				<attribute name="decompression" version="0" />
			</rt_info>
			<input>
				<port id="0" precision="FP16">
					<dim>36</dim>
					<dim>36</dim>
					<dim>1</dim>
					<dim>1</dim>
				</port>
			</input>
			<output>
				<port id="1" precision="FP32" names="onnx::Conv_1964">
					<dim>36</dim>
					<dim>36</dim>
					<dim>1</dim>
					<dim>1</dim>
				</port>
			</output>
		</layer>
		<layer id="309" name="Conv_147/WithoutBiases" type="Convolution" version="opset1">
			<data strides="1, 1" dilations="1, 1" pads_begin="0, 0" pads_end="0, 0" auto_pad="explicit" />
			<input>
				<port id="0" precision="FP32">
					<dim>1</dim>
					<dim>36</dim>
					<dim>26</dim>
					<dim>40</dim>
				</port>
				<port id="1" precision="FP32">
					<dim>36</dim>
					<dim>36</dim>
					<dim>1</dim>
					<dim>1</dim>
				</port>
			</input>
			<output>
				<port id="2" precision="FP32">
					<dim>1</dim>
					<dim>36</dim>
					<dim>26</dim>
					<dim>40</dim>
				</port>
			</output>
		</layer>
		<layer id="310" name="Reshape_2743_compressed" type="Const" version="opset1">
			<data element_type="f16" shape="1, 36, 1, 1" offset="34076" size="72" />
			<output>
				<port id="0" precision="FP16">
					<dim>1</dim>
					<dim>36</dim>
					<dim>1</dim>
					<dim>1</dim>
				</port>
			</output>
		</layer>
		<layer id="311" name="Reshape_2743" type="Convert" version="opset1">
			<data destination_type="f32" />
			<rt_info>
				<attribute name="decompression" version="0" />
			</rt_info>
			<input>
				<port id="0" precision="FP16">
					<dim>1</dim>
					<dim>36</dim>
					<dim>1</dim>
					<dim>1</dim>
				</port>
			</input>
			<output>
				<port id="1" precision="FP32">
					<dim>1</dim>
					<dim>36</dim>
					<dim>1</dim>
					<dim>1</dim>
				</port>
			</output>
		</layer>
		<layer id="312" name="Conv_147" type="Add" version="opset1">
			<data auto_broadcast="numpy" />
			<input>
				<port id="0" precision="FP32">
					<dim>1</dim>
					<dim>36</dim>
					<dim>26</dim>
					<dim>40</dim>
				</port>
				<port id="1" precision="FP32">
					<dim>1</dim>
					<dim>36</dim>
					<dim>1</dim>
					<dim>1</dim>
				</port>
			</input>
			<output>
				<port id="2" precision="FP32" names="input.192">
					<dim>1</dim>
					<dim>36</dim>
					<dim>26</dim>
					<dim>40</dim>
				</port>
			</output>
		</layer>
		<layer id="313" name="Mul_149" type="Swish" version="opset4">
			<input>
				<port id="0" precision="FP32">
					<dim>1</dim>
					<dim>36</dim>
					<dim>26</dim>
					<dim>40</dim>
				</port>
			</input>
			<output>
				<port id="1" precision="FP32" names="onnx::Concat_580">
					<dim>1</dim>
					<dim>36</dim>
					<dim>26</dim>
					<dim>40</dim>
				</port>
			</output>
		</layer>
		<layer id="314" name="Concat_150" type="Concat" version="opset1">
			<data axis="1" />
			<input>
				<port id="0" precision="FP32">
					<dim>1</dim>
					<dim>36</dim>
					<dim>26</dim>
					<dim>40</dim>
				</port>
				<port id="1" precision="FP32">
					<dim>1</dim>
					<dim>36</dim>
					<dim>26</dim>
					<dim>40</dim>
				</port>
			</input>
			<output>
				<port id="2" precision="FP32" names="out.19">
					<dim>1</dim>
					<dim>72</dim>
					<dim>26</dim>
					<dim>40</dim>
				</port>
			</output>
		</layer>
		<layer id="315" name="Constant_151" type="Const" version="opset1">
			<data element_type="i64" shape="5" offset="21980" size="40" />
			<output>
				<port id="0" precision="I64" names="onnx::Reshape_582">
					<dim>5</dim>
				</port>
			</output>
		</layer>
		<layer id="316" name="Reshape_152" type="Reshape" version="opset1">
			<data special_zero="true" />
			<input>
				<port id="0" precision="FP32">
					<dim>1</dim>
					<dim>72</dim>
					<dim>26</dim>
					<dim>40</dim>
				</port>
				<port id="1" precision="I64">
					<dim>5</dim>
				</port>
			</input>
			<output>
				<port id="2" precision="FP32" names="onnx::Transpose_583">
					<dim>1</dim>
					<dim>2</dim>
					<dim>36</dim>
					<dim>26</dim>
					<dim>40</dim>
				</port>
			</output>
		</layer>
		<layer id="317" name="Constant_2781" type="Const" version="opset1">
			<data element_type="i64" shape="5" offset="7600" size="40" />
			<output>
				<port id="0" precision="I64">
					<dim>5</dim>
				</port>
			</output>
		</layer>
		<layer id="318" name="Transpose_153" type="Transpose" version="opset1">
			<input>
				<port id="0" precision="FP32">
					<dim>1</dim>
					<dim>2</dim>
					<dim>36</dim>
					<dim>26</dim>
					<dim>40</dim>
				</port>
				<port id="1" precision="I64">
					<dim>5</dim>
				</port>
			</input>
			<output>
				<port id="2" precision="FP32" names="onnx::Reshape_584">
					<dim>1</dim>
					<dim>36</dim>
					<dim>2</dim>
					<dim>26</dim>
					<dim>40</dim>
				</port>
			</output>
		</layer>
		<layer id="319" name="Constant_154" type="Const" version="opset1">
			<data element_type="i64" shape="4" offset="22020" size="32" />
			<output>
				<port id="0" precision="I64" names="onnx::Reshape_585">
					<dim>4</dim>
				</port>
			</output>
		</layer>
		<layer id="320" name="Reshape_155" type="Reshape" version="opset1">
			<data special_zero="true" />
			<input>
				<port id="0" precision="FP32">
					<dim>1</dim>
					<dim>36</dim>
					<dim>2</dim>
					<dim>26</dim>
					<dim>40</dim>
				</port>
				<port id="1" precision="I64">
					<dim>4</dim>
				</port>
			</input>
			<output>
				<port id="2" precision="FP32" names="onnx::Shape_586">
					<dim>1</dim>
					<dim>72</dim>
					<dim>26</dim>
					<dim>40</dim>
				</port>
			</output>
		</layer>
		<layer id="321" name="Constant_56960" type="Const" version="opset1">
			<data element_type="i64" shape="2" offset="7672" size="16" />
			<output>
				<port id="0" precision="I64">
					<dim>2</dim>
				</port>
			</output>
		</layer>
		<layer id="322" name="Constant_56961" type="Const" version="opset1">
			<data element_type="i64" shape="2" offset="7672" size="16" />
			<output>
				<port id="0" precision="I64">
					<dim>2</dim>
				</port>
			</output>
		</layer>
		<layer id="323" name="Constant_56957" type="Const" version="opset1">
			<data element_type="i64" shape="1" offset="7688" size="8" />
			<output>
				<port id="0" precision="I64">
					<dim>1</dim>
				</port>
			</output>
		</layer>
		<layer id="324" name="Shape_156" type="ShapeOf" version="opset3">
			<data output_type="i64" />
			<input>
				<port id="0" precision="FP32">
					<dim>1</dim>
					<dim>72</dim>
					<dim>26</dim>
					<dim>40</dim>
				</port>
			</input>
			<output>
				<port id="1" precision="I64" names="onnx::Gather_587">
					<dim>4</dim>
				</port>
			</output>
		</layer>
		<layer id="325" name="Constant_157" type="Const" version="opset1">
			<data element_type="i64" shape="1" offset="7688" size="8" />
			<output>
				<port id="0" precision="I64" names="onnx::Gather_588">
					<dim>1</dim>
				</port>
			</output>
		</layer>
		<layer id="326" name="Constant_2792" type="Const" version="opset1">
			<data element_type="i64" shape="" offset="7696" size="8" />
			<output>
				<port id="0" precision="I64" />
			</output>
		</layer>
		<layer id="327" name="Gather_158" type="Gather" version="opset8">
			<data batch_dims="0" />
			<input>
				<port id="0" precision="I64">
					<dim>4</dim>
				</port>
				<port id="1" precision="I64">
					<dim>1</dim>
				</port>
				<port id="2" precision="I64" />
			</input>
			<output>
				<port id="3" precision="I64" names="onnx::Add_589">
					<dim>1</dim>
				</port>
			</output>
		</layer>
		<layer id="328" name="Constant_160" type="Const" version="opset1">
			<data element_type="i64" shape="1" offset="7688" size="8" />
			<output>
				<port id="0" precision="I64" names="onnx::Add_591">
					<dim>1</dim>
				</port>
			</output>
		</layer>
		<layer id="329" name="Add_161" type="Add" version="opset1">
			<data auto_broadcast="numpy" />
			<input>
				<port id="0" precision="I64">
					<dim>1</dim>
				</port>
				<port id="1" precision="I64">
					<dim>1</dim>
				</port>
			</input>
			<output>
				<port id="2" precision="I64" names="onnx::Div_592">
					<dim>1</dim>
				</port>
			</output>
		</layer>
		<layer id="330" name="Constant_162" type="Const" version="opset1">
			<data element_type="i64" shape="1" offset="7704" size="8" />
			<output>
				<port id="0" precision="I64" names="onnx::Div_593">
					<dim>1</dim>
				</port>
			</output>
		</layer>
		<layer id="331" name="Div_163" type="Divide" version="opset1">
			<data auto_broadcast="numpy" m_pythondiv="true" />
			<input>
				<port id="0" precision="I64">
					<dim>1</dim>
				</port>
				<port id="1" precision="I64">
					<dim>1</dim>
				</port>
			</input>
			<output>
				<port id="2" precision="I64" names="onnx::Mul_594,onnx::Slice_596">
					<dim>1</dim>
				</port>
			</output>
		</layer>
		<layer id="332" name="Constant_56956" type="Const" version="opset1">
			<data element_type="i32" shape="1" offset="7712" size="4" />
			<output>
				<port id="0" precision="I32">
					<dim>1</dim>
				</port>
			</output>
		</layer>
		<layer id="333" name="ScatterUpdate_56962" type="ScatterUpdate" version="opset3">
			<input>
				<port id="0" precision="I64">
					<dim>2</dim>
				</port>
				<port id="1" precision="I64">
					<dim>1</dim>
				</port>
				<port id="2" precision="I64">
					<dim>1</dim>
				</port>
				<port id="3" precision="I32">
					<dim>1</dim>
				</port>
			</input>
			<output>
				<port id="4" precision="I64">
					<dim>2</dim>
				</port>
			</output>
		</layer>
		<layer id="334" name="Constant_56965" type="Const" version="opset1">
			<data element_type="i64" shape="2" offset="7716" size="16" />
			<output>
				<port id="0" precision="I64">
					<dim>2</dim>
				</port>
			</output>
		</layer>
		<layer id="335" name="Slice_166" type="StridedSlice" version="opset1">
			<data begin_mask="1, 0" end_mask="1, 0" new_axis_mask="" shrink_axis_mask="" ellipsis_mask="" />
			<input>
				<port id="0" precision="FP32">
					<dim>1</dim>
					<dim>72</dim>
					<dim>26</dim>
					<dim>40</dim>
				</port>
				<port id="1" precision="I64">
					<dim>2</dim>
				</port>
				<port id="2" precision="I64">
					<dim>2</dim>
				</port>
				<port id="3" precision="I64">
					<dim>2</dim>
				</port>
			</input>
			<output>
				<port id="4" precision="FP32" names="onnx::Concat_597">
					<dim>1</dim>
					<dim>36</dim>
					<dim>26</dim>
					<dim>40</dim>
				</port>
			</output>
		</layer>
		<layer id="336" name="Constant_57029" type="Const" version="opset1">
			<data element_type="i64" shape="2" offset="7672" size="16" />
			<output>
				<port id="0" precision="I64">
					<dim>2</dim>
				</port>
			</output>
		</layer>
		<layer id="337" name="Constant_57028" type="Const" version="opset1">
			<data element_type="i64" shape="1" offset="7688" size="8" />
			<output>
				<port id="0" precision="I64">
					<dim>1</dim>
				</port>
			</output>
		</layer>
		<layer id="338" name="Constant_57027" type="Const" version="opset1">
			<data element_type="i32" shape="1" offset="7712" size="4" />
			<output>
				<port id="0" precision="I32">
					<dim>1</dim>
				</port>
			</output>
		</layer>
		<layer id="339" name="ScatterUpdate_57030" type="ScatterUpdate" version="opset3">
			<input>
				<port id="0" precision="I64">
					<dim>2</dim>
				</port>
				<port id="1" precision="I64">
					<dim>1</dim>
				</port>
				<port id="2" precision="I64">
					<dim>1</dim>
				</port>
				<port id="3" precision="I32">
					<dim>1</dim>
				</port>
			</input>
			<output>
				<port id="4" precision="I64">
					<dim>2</dim>
				</port>
			</output>
		</layer>
		<layer id="340" name="Constant_57031" type="Const" version="opset1">
			<data element_type="i64" shape="2" offset="7672" size="16" />
			<output>
				<port id="0" precision="I64">
					<dim>2</dim>
				</port>
			</output>
		</layer>
		<layer id="341" name="Constant_167" type="Const" version="opset1">
			<data element_type="i64" shape="1" offset="7704" size="8" />
			<output>
				<port id="0" precision="I64" names="onnx::Mul_598">
					<dim>1</dim>
				</port>
			</output>
		</layer>
		<layer id="342" name="Mul_168" type="Multiply" version="opset1">
			<data auto_broadcast="numpy" />
			<input>
				<port id="0" precision="I64">
					<dim>1</dim>
				</port>
				<port id="1" precision="I64">
					<dim>1</dim>
				</port>
			</input>
			<output>
				<port id="2" precision="I64" names="onnx::Slice_599">
					<dim>1</dim>
				</port>
			</output>
		</layer>
		<layer id="343" name="ScatterUpdate_57032" type="ScatterUpdate" version="opset3">
			<input>
				<port id="0" precision="I64">
					<dim>2</dim>
				</port>
				<port id="1" precision="I64">
					<dim>1</dim>
				</port>
				<port id="2" precision="I64">
					<dim>1</dim>
				</port>
				<port id="3" precision="I32">
					<dim>1</dim>
				</port>
			</input>
			<output>
				<port id="4" precision="I64">
					<dim>2</dim>
				</port>
			</output>
		</layer>
		<layer id="344" name="Constant_57035" type="Const" version="opset1">
			<data element_type="i64" shape="2" offset="7716" size="16" />
			<output>
				<port id="0" precision="I64">
					<dim>2</dim>
				</port>
			</output>
		</layer>
		<layer id="345" name="Slice_169" type="StridedSlice" version="opset1">
			<data begin_mask="1, 0" end_mask="1, 0" new_axis_mask="" shrink_axis_mask="" ellipsis_mask="" />
			<input>
				<port id="0" precision="FP32">
					<dim>1</dim>
					<dim>72</dim>
					<dim>26</dim>
					<dim>40</dim>
				</port>
				<port id="1" precision="I64">
					<dim>2</dim>
				</port>
				<port id="2" precision="I64">
					<dim>2</dim>
				</port>
				<port id="3" precision="I64">
					<dim>2</dim>
				</port>
			</input>
			<output>
				<port id="4" precision="FP32" names="onnx::Conv_600">
					<dim>1</dim>
					<dim>36</dim>
					<dim>26</dim>
					<dim>40</dim>
				</port>
			</output>
		</layer>
		<layer id="346" name="onnx::Conv_1967_compressed" type="Const" version="opset1">
			<data element_type="f16" shape="36, 36, 1, 1" offset="34148" size="2592" />
			<output>
				<port id="0" precision="FP16">
					<dim>36</dim>
					<dim>36</dim>
					<dim>1</dim>
					<dim>1</dim>
				</port>
			</output>
		</layer>
		<layer id="347" name="onnx::Conv_1967" type="Convert" version="opset1">
			<data destination_type="f32" />
			<rt_info>
				<attribute name="decompression" version="0" />
			</rt_info>
			<input>
				<port id="0" precision="FP16">
					<dim>36</dim>
					<dim>36</dim>
					<dim>1</dim>
					<dim>1</dim>
				</port>
			</input>
			<output>
				<port id="1" precision="FP32" names="onnx::Conv_1967">
					<dim>36</dim>
					<dim>36</dim>
					<dim>1</dim>
					<dim>1</dim>
				</port>
			</output>
		</layer>
		<layer id="348" name="Conv_170/WithoutBiases" type="Convolution" version="opset1">
			<data strides="1, 1" dilations="1, 1" pads_begin="0, 0" pads_end="0, 0" auto_pad="explicit" />
			<input>
				<port id="0" precision="FP32">
					<dim>1</dim>
					<dim>36</dim>
					<dim>26</dim>
					<dim>40</dim>
				</port>
				<port id="1" precision="FP32">
					<dim>36</dim>
					<dim>36</dim>
					<dim>1</dim>
					<dim>1</dim>
				</port>
			</input>
			<output>
				<port id="2" precision="FP32">
					<dim>1</dim>
					<dim>36</dim>
					<dim>26</dim>
					<dim>40</dim>
				</port>
			</output>
		</layer>
		<layer id="349" name="Reshape_2958_compressed" type="Const" version="opset1">
			<data element_type="f16" shape="1, 36, 1, 1" offset="36740" size="72" />
			<output>
				<port id="0" precision="FP16">
					<dim>1</dim>
					<dim>36</dim>
					<dim>1</dim>
					<dim>1</dim>
				</port>
			</output>
		</layer>
		<layer id="350" name="Reshape_2958" type="Convert" version="opset1">
			<data destination_type="f32" />
			<rt_info>
				<attribute name="decompression" version="0" />
			</rt_info>
			<input>
				<port id="0" precision="FP16">
					<dim>1</dim>
					<dim>36</dim>
					<dim>1</dim>
					<dim>1</dim>
				</port>
			</input>
			<output>
				<port id="1" precision="FP32">
					<dim>1</dim>
					<dim>36</dim>
					<dim>1</dim>
					<dim>1</dim>
				</port>
			</output>
		</layer>
		<layer id="351" name="Conv_170" type="Add" version="opset1">
			<data auto_broadcast="numpy" />
			<input>
				<port id="0" precision="FP32">
					<dim>1</dim>
					<dim>36</dim>
					<dim>26</dim>
					<dim>40</dim>
				</port>
				<port id="1" precision="FP32">
					<dim>1</dim>
					<dim>36</dim>
					<dim>1</dim>
					<dim>1</dim>
				</port>
			</input>
			<output>
				<port id="2" precision="FP32" names="input.200">
					<dim>1</dim>
					<dim>36</dim>
					<dim>26</dim>
					<dim>40</dim>
				</port>
			</output>
		</layer>
		<layer id="352" name="Mul_172" type="Swish" version="opset4">
			<input>
				<port id="0" precision="FP32">
					<dim>1</dim>
					<dim>36</dim>
					<dim>26</dim>
					<dim>40</dim>
				</port>
			</input>
			<output>
				<port id="1" precision="FP32" names="onnx::Conv_604">
					<dim>1</dim>
					<dim>36</dim>
					<dim>26</dim>
					<dim>40</dim>
				</port>
			</output>
		</layer>
		<layer id="353" name="Reshape_2995_compressed" type="Const" version="opset1">
			<data element_type="f16" shape="36, 1, 1, 3, 3" offset="36812" size="648" />
			<output>
				<port id="0" precision="FP16">
					<dim>36</dim>
					<dim>1</dim>
					<dim>1</dim>
					<dim>3</dim>
					<dim>3</dim>
				</port>
			</output>
		</layer>
		<layer id="354" name="Reshape_2995" type="Convert" version="opset1">
			<data destination_type="f32" />
			<rt_info>
				<attribute name="decompression" version="0" />
			</rt_info>
			<input>
				<port id="0" precision="FP16">
					<dim>36</dim>
					<dim>1</dim>
					<dim>1</dim>
					<dim>3</dim>
					<dim>3</dim>
				</port>
			</input>
			<output>
				<port id="1" precision="FP32">
					<dim>36</dim>
					<dim>1</dim>
					<dim>1</dim>
					<dim>3</dim>
					<dim>3</dim>
				</port>
			</output>
		</layer>
		<layer id="355" name="Conv_173/WithoutBiases" type="GroupConvolution" version="opset1">
			<data strides="1, 1" pads_begin="1, 1" pads_end="1, 1" dilations="1, 1" auto_pad="explicit" />
			<input>
				<port id="0" precision="FP32">
					<dim>1</dim>
					<dim>36</dim>
					<dim>26</dim>
					<dim>40</dim>
				</port>
				<port id="1" precision="FP32">
					<dim>36</dim>
					<dim>1</dim>
					<dim>1</dim>
					<dim>3</dim>
					<dim>3</dim>
				</port>
			</input>
			<output>
				<port id="2" precision="FP32">
					<dim>1</dim>
					<dim>36</dim>
					<dim>26</dim>
					<dim>40</dim>
				</port>
			</output>
		</layer>
		<layer id="356" name="Reshape_3081_compressed" type="Const" version="opset1">
			<data element_type="f16" shape="1, 36, 1, 1" offset="37460" size="72" />
			<output>
				<port id="0" precision="FP16">
					<dim>1</dim>
					<dim>36</dim>
					<dim>1</dim>
					<dim>1</dim>
				</port>
			</output>
		</layer>
		<layer id="357" name="Reshape_3081" type="Convert" version="opset1">
			<data destination_type="f32" />
			<rt_info>
				<attribute name="decompression" version="0" />
			</rt_info>
			<input>
				<port id="0" precision="FP16">
					<dim>1</dim>
					<dim>36</dim>
					<dim>1</dim>
					<dim>1</dim>
				</port>
			</input>
			<output>
				<port id="1" precision="FP32">
					<dim>1</dim>
					<dim>36</dim>
					<dim>1</dim>
					<dim>1</dim>
				</port>
			</output>
		</layer>
		<layer id="358" name="Conv_173" type="Add" version="opset1">
			<data auto_broadcast="numpy" />
			<input>
				<port id="0" precision="FP32">
					<dim>1</dim>
					<dim>36</dim>
					<dim>26</dim>
					<dim>40</dim>
				</port>
				<port id="1" precision="FP32">
					<dim>1</dim>
					<dim>36</dim>
					<dim>1</dim>
					<dim>1</dim>
				</port>
			</input>
			<output>
				<port id="2" precision="FP32" names="input.208">
					<dim>1</dim>
					<dim>36</dim>
					<dim>26</dim>
					<dim>40</dim>
				</port>
			</output>
		</layer>
		<layer id="359" name="onnx::Conv_1973_compressed" type="Const" version="opset1">
			<data element_type="f16" shape="36, 36, 1, 1" offset="37532" size="2592" />
			<output>
				<port id="0" precision="FP16">
					<dim>36</dim>
					<dim>36</dim>
					<dim>1</dim>
					<dim>1</dim>
				</port>
			</output>
		</layer>
		<layer id="360" name="onnx::Conv_1973" type="Convert" version="opset1">
			<data destination_type="f32" />
			<rt_info>
				<attribute name="decompression" version="0" />
			</rt_info>
			<input>
				<port id="0" precision="FP16">
					<dim>36</dim>
					<dim>36</dim>
					<dim>1</dim>
					<dim>1</dim>
				</port>
			</input>
			<output>
				<port id="1" precision="FP32" names="onnx::Conv_1973">
					<dim>36</dim>
					<dim>36</dim>
					<dim>1</dim>
					<dim>1</dim>
				</port>
			</output>
		</layer>
		<layer id="361" name="Conv_174/WithoutBiases" type="Convolution" version="opset1">
			<data strides="1, 1" dilations="1, 1" pads_begin="0, 0" pads_end="0, 0" auto_pad="explicit" />
			<input>
				<port id="0" precision="FP32">
					<dim>1</dim>
					<dim>36</dim>
					<dim>26</dim>
					<dim>40</dim>
				</port>
				<port id="1" precision="FP32">
					<dim>36</dim>
					<dim>36</dim>
					<dim>1</dim>
					<dim>1</dim>
				</port>
			</input>
			<output>
				<port id="2" precision="FP32">
					<dim>1</dim>
					<dim>36</dim>
					<dim>26</dim>
					<dim>40</dim>
				</port>
			</output>
		</layer>
		<layer id="362" name="Reshape_3129_compressed" type="Const" version="opset1">
			<data element_type="f16" shape="1, 36, 1, 1" offset="40124" size="72" />
			<output>
				<port id="0" precision="FP16">
					<dim>1</dim>
					<dim>36</dim>
					<dim>1</dim>
					<dim>1</dim>
				</port>
			</output>
		</layer>
		<layer id="363" name="Reshape_3129" type="Convert" version="opset1">
			<data destination_type="f32" />
			<rt_info>
				<attribute name="decompression" version="0" />
			</rt_info>
			<input>
				<port id="0" precision="FP16">
					<dim>1</dim>
					<dim>36</dim>
					<dim>1</dim>
					<dim>1</dim>
				</port>
			</input>
			<output>
				<port id="1" precision="FP32">
					<dim>1</dim>
					<dim>36</dim>
					<dim>1</dim>
					<dim>1</dim>
				</port>
			</output>
		</layer>
		<layer id="364" name="Conv_174" type="Add" version="opset1">
			<data auto_broadcast="numpy" />
			<input>
				<port id="0" precision="FP32">
					<dim>1</dim>
					<dim>36</dim>
					<dim>26</dim>
					<dim>40</dim>
				</port>
				<port id="1" precision="FP32">
					<dim>1</dim>
					<dim>36</dim>
					<dim>1</dim>
					<dim>1</dim>
				</port>
			</input>
			<output>
				<port id="2" precision="FP32" names="input.216">
					<dim>1</dim>
					<dim>36</dim>
					<dim>26</dim>
					<dim>40</dim>
				</port>
			</output>
		</layer>
		<layer id="365" name="Mul_176" type="Swish" version="opset4">
			<input>
				<port id="0" precision="FP32">
					<dim>1</dim>
					<dim>36</dim>
					<dim>26</dim>
					<dim>40</dim>
				</port>
			</input>
			<output>
				<port id="1" precision="FP32" names="onnx::Concat_610">
					<dim>1</dim>
					<dim>36</dim>
					<dim>26</dim>
					<dim>40</dim>
				</port>
			</output>
		</layer>
		<layer id="366" name="Concat_177" type="Concat" version="opset1">
			<data axis="1" />
			<input>
				<port id="0" precision="FP32">
					<dim>1</dim>
					<dim>36</dim>
					<dim>26</dim>
					<dim>40</dim>
				</port>
				<port id="1" precision="FP32">
					<dim>1</dim>
					<dim>36</dim>
					<dim>26</dim>
					<dim>40</dim>
				</port>
			</input>
			<output>
				<port id="2" precision="FP32" names="out.23">
					<dim>1</dim>
					<dim>72</dim>
					<dim>26</dim>
					<dim>40</dim>
				</port>
			</output>
		</layer>
		<layer id="367" name="Constant_178" type="Const" version="opset1">
…
		<edge from-layer="1278" from-port="2" to-layer="1281" to-port="0" />
		<edge from-layer="1279" from-port="0" to-layer="1280" to-port="0" />
		<edge from-layer="1280" from-port="1" to-layer="1281" to-port="1" />
		<edge from-layer="1281" from-port="2" to-layer="1284" to-port="0" />
		<edge from-layer="1282" from-port="0" to-layer="1283" to-port="0" />
		<edge from-layer="1283" from-port="1" to-layer="1284" to-port="1" />
		<edge from-layer="1284" from-port="2" to-layer="1287" to-port="0" />
		<edge from-layer="1285" from-port="0" to-layer="1286" to-port="0" />
		<edge from-layer="1286" from-port="1" to-layer="1287" to-port="1" />
		<edge from-layer="1287" from-port="2" to-layer="1293" to-port="0" />
		<edge from-layer="1288" from-port="0" to-layer="1291" to-port="1" />
		<edge from-layer="1289" from-port="0" to-layer="1291" to-port="2" />
		<edge from-layer="1290" from-port="0" to-layer="1291" to-port="3" />
		<edge from-layer="1291" from-port="4" to-layer="1292" to-port="0" />
		<edge from-layer="1292" from-port="1" to-layer="1293" to-port="1" />
		<edge from-layer="1293" from-port="2" to-layer="1294" to-port="0" />
		<edge from-layer="1294" from-port="2" to-layer="1295" to-port="2" />
		<edge from-layer="1295" from-port="3" to-layer="1384" to-port="0" />
		<edge from-layer="1295" from-port="3" to-layer="1380" to-port="0" />
		<edge from-layer="1295" from-port="3" to-layer="1364" to-port="0" />
		<edge from-layer="1296" from-port="0" to-layer="1303" to-port="0" />
		<edge from-layer="1297" from-port="0" to-layer="1298" to-port="0" />
		<edge from-layer="1298" from-port="1" to-layer="1383" to-port="1" />
		<edge from-layer="1298" from-port="1" to-layer="1335" to-port="0" />
		<edge from-layer="1298" from-port="1" to-layer="1337" to-port="2" />
		<edge from-layer="1298" from-port="1" to-layer="1302" to-port="2" />
		<edge from-layer="1298" from-port="1" to-layer="1318" to-port="2" />
		<edge from-layer="1298" from-port="1" to-layer="1316" to-port="0" />
		<edge from-layer="1298" from-port="1" to-layer="1300" to-port="0" />
		<edge from-layer="1298" from-port="1" to-layer="1354" to-port="0" />
		<edge from-layer="1298" from-port="1" to-layer="1310" to-port="2" />
		<edge from-layer="1298" from-port="1" to-layer="1356" to-port="2" />
		<edge from-layer="1298" from-port="1" to-layer="1308" to-port="0" />
		<edge from-layer="1299" from-port="0" to-layer="1300" to-port="1" />
		<edge from-layer="1300" from-port="2" to-layer="1302" to-port="0" />
		<edge from-layer="1301" from-port="0" to-layer="1302" to-port="1" />
		<edge from-layer="1302" from-port="3" to-layer="1303" to-port="1" />
		<edge from-layer="1303" from-port="2" to-layer="1305" to-port="0" />
		<edge from-layer="1304" from-port="0" to-layer="1305" to-port="1" />
		<edge from-layer="1305" from-port="2" to-layer="1360" to-port="0" />
		<edge from-layer="1306" from-port="0" to-layer="1311" to-port="0" />
		<edge from-layer="1307" from-port="0" to-layer="1308" to-port="1" />
		<edge from-layer="1308" from-port="2" to-layer="1310" to-port="0" />
		<edge from-layer="1309" from-port="0" to-layer="1310" to-port="1" />
		<edge from-layer="1310" from-port="3" to-layer="1311" to-port="1" />
		<edge from-layer="1311" from-port="2" to-layer="1313" to-port="0" />
		<edge from-layer="1312" from-port="0" to-layer="1313" to-port="1" />
		<edge from-layer="1313" from-port="2" to-layer="1360" to-port="1" />
		<edge from-layer="1314" from-port="0" to-layer="1327" to-port="0" />
		<edge from-layer="1315" from-port="0" to-layer="1316" to-port="1" />
		<edge from-layer="1316" from-port="2" to-layer="1318" to-port="0" />
		<edge from-layer="1317" from-port="0" to-layer="1318" to-port="1" />
		<edge from-layer="1318" from-port="3" to-layer="1330" to-port="1" />
		<edge from-layer="1318" from-port="3" to-layer="1321" to-port="0" />
		<edge from-layer="1319" from-port="0" to-layer="1321" to-port="1" />
		<edge from-layer="1320" from-port="0" to-layer="1321" to-port="2" />
		<edge from-layer="1321" from-port="3" to-layer="1325" to-port="2" />
		<edge from-layer="1321" from-port="3" to-layer="1323" to-port="0" />
		<edge from-layer="1322" from-port="0" to-layer="1323" to-port="1" />
		<edge from-layer="1323" from-port="2" to-layer="1325" to-port="0" />
		<edge from-layer="1324" from-port="0" to-layer="1325" to-port="1" />
		<edge from-layer="1325" from-port="3" to-layer="1327" to-port="1" />
		<edge from-layer="1326" from-port="0" to-layer="1327" to-port="2" />
		<edge from-layer="1327" from-port="3" to-layer="1329" to-port="0" />
		<edge from-layer="1328" from-port="0" to-layer="1329" to-port="1" />
		<edge from-layer="1329" from-port="2" to-layer="1330" to-port="0" />
		<edge from-layer="1330" from-port="2" to-layer="1332" to-port="0" />
		<edge from-layer="1331" from-port="0" to-layer="1332" to-port="1" />
		<edge from-layer="1332" from-port="2" to-layer="1360" to-port="2" />
		<edge from-layer="1333" from-port="0" to-layer="1346" to-port="0" />
		<edge from-layer="1334" from-port="0" to-layer="1335" to-port="1" />
		<edge from-layer="1335" from-port="2" to-layer="1337" to-port="0" />
		<edge from-layer="1336" from-port="0" to-layer="1337" to-port="1" />
		<edge from-layer="1337" from-port="3" to-layer="1349" to-port="1" />
		<edge from-layer="1337" from-port="3" to-layer="1340" to-port="0" />
		<edge from-layer="1338" from-port="0" to-layer="1340" to-port="1" />
		<edge from-layer="1339" from-port="0" to-layer="1340" to-port="2" />
		<edge from-layer="1340" from-port="3" to-layer="1344" to-port="2" />
		<edge from-layer="1340" from-port="3" to-layer="1342" to-port="0" />
		<edge from-layer="1341" from-port="0" to-layer="1342" to-port="1" />
		<edge from-layer="1342" from-port="2" to-layer="1344" to-port="0" />
		<edge from-layer="1343" from-port="0" to-layer="1344" to-port="1" />
		<edge from-layer="1344" from-port="3" to-layer="1346" to-port="1" />
		<edge from-layer="1345" from-port="0" to-layer="1346" to-port="2" />
		<edge from-layer="1346" from-port="3" to-layer="1348" to-port="0" />
		<edge from-layer="1347" from-port="0" to-layer="1348" to-port="1" />
		<edge from-layer="1348" from-port="2" to-layer="1349" to-port="0" />
		<edge from-layer="1349" from-port="2" to-layer="1351" to-port="0" />
		<edge from-layer="1350" from-port="0" to-layer="1351" to-port="1" />
		<edge from-layer="1351" from-port="2" to-layer="1360" to-port="3" />
		<edge from-layer="1352" from-port="0" to-layer="1357" to-port="0" />
		<edge from-layer="1353" from-port="0" to-layer="1354" to-port="1" />
		<edge from-layer="1354" from-port="2" to-layer="1356" to-port="0" />
		<edge from-layer="1355" from-port="0" to-layer="1356" to-port="1" />
		<edge from-layer="1356" from-port="3" to-layer="1357" to-port="1" />
		<edge from-layer="1357" from-port="2" to-layer="1359" to-port="0" />
		<edge from-layer="1358" from-port="0" to-layer="1359" to-port="1" />
		<edge from-layer="1359" from-port="2" to-layer="1360" to-port="4" />
		<edge from-layer="1360" from-port="5" to-layer="1384" to-port="1" />
		<edge from-layer="1361" from-port="0" to-layer="1364" to-port="1" />
		<edge from-layer="1362" from-port="0" to-layer="1364" to-port="2" />
		<edge from-layer="1363" from-port="0" to-layer="1364" to-port="3" />
		<edge from-layer="1364" from-port="4" to-layer="1367" to-port="0" />
		<edge from-layer="1365" from-port="0" to-layer="1366" to-port="0" />
		<edge from-layer="1366" from-port="1" to-layer="1367" to-port="1" />
		<edge from-layer="1367" from-port="2" to-layer="1370" to-port="0" />
		<edge from-layer="1368" from-port="0" to-layer="1369" to-port="0" />
		<edge from-layer="1369" from-port="1" to-layer="1370" to-port="1" />
		<edge from-layer="1370" from-port="2" to-layer="1373" to-port="0" />
		<edge from-layer="1371" from-port="0" to-layer="1372" to-port="0" />
		<edge from-layer="1372" from-port="1" to-layer="1373" to-port="1" />
		<edge from-layer="1373" from-port="2" to-layer="1376" to-port="0" />
		<edge from-layer="1374" from-port="0" to-layer="1375" to-port="0" />
		<edge from-layer="1375" from-port="1" to-layer="1376" to-port="1" />
		<edge from-layer="1376" from-port="2" to-layer="1382" to-port="0" />
		<edge from-layer="1377" from-port="0" to-layer="1380" to-port="1" />
		<edge from-layer="1378" from-port="0" to-layer="1380" to-port="2" />
		<edge from-layer="1379" from-port="0" to-layer="1380" to-port="3" />
		<edge from-layer="1380" from-port="4" to-layer="1381" to-port="0" />
		<edge from-layer="1381" from-port="1" to-layer="1382" to-port="1" />
		<edge from-layer="1382" from-port="2" to-layer="1383" to-port="0" />
		<edge from-layer="1383" from-port="2" to-layer="1384" to-port="2" />
		<edge from-layer="1384" from-port="3" to-layer="1462" to-port="0" />
		<edge from-layer="1384" from-port="3" to-layer="1458" to-port="0" />
		<edge from-layer="1384" from-port="3" to-layer="1453" to-port="0" />
		<edge from-layer="1385" from-port="0" to-layer="1392" to-port="0" />
		<edge from-layer="1386" from-port="0" to-layer="1387" to-port="0" />
		<edge from-layer="1387" from-port="1" to-layer="1424" to-port="0" />
		<edge from-layer="1387" from-port="1" to-layer="1426" to-port="2" />
		<edge from-layer="1387" from-port="1" to-layer="1389" to-port="0" />
		<edge from-layer="1387" from-port="1" to-layer="1443" to-port="0" />
		<edge from-layer="1387" from-port="1" to-layer="1445" to-port="2" />
		<edge from-layer="1387" from-port="1" to-layer="1461" to-port="1" />
		<edge from-layer="1387" from-port="1" to-layer="1407" to-port="2" />
		<edge from-layer="1387" from-port="1" to-layer="1405" to-port="0" />
		<edge from-layer="1387" from-port="1" to-layer="1391" to-port="2" />
		<edge from-layer="1387" from-port="1" to-layer="1397" to-port="0" />
		<edge from-layer="1387" from-port="1" to-layer="1399" to-port="2" />
		<edge from-layer="1388" from-port="0" to-layer="1389" to-port="1" />
		<edge from-layer="1389" from-port="2" to-layer="1391" to-port="0" />
		<edge from-layer="1390" from-port="0" to-layer="1391" to-port="1" />
		<edge from-layer="1391" from-port="3" to-layer="1392" to-port="1" />
		<edge from-layer="1392" from-port="2" to-layer="1394" to-port="0" />
		<edge from-layer="1393" from-port="0" to-layer="1394" to-port="1" />
		<edge from-layer="1394" from-port="2" to-layer="1449" to-port="0" />
		<edge from-layer="1395" from-port="0" to-layer="1400" to-port="0" />
		<edge from-layer="1396" from-port="0" to-layer="1397" to-port="1" />
		<edge from-layer="1397" from-port="2" to-layer="1399" to-port="0" />
		<edge from-layer="1398" from-port="0" to-layer="1399" to-port="1" />
		<edge from-layer="1399" from-port="3" to-layer="1400" to-port="1" />
		<edge from-layer="1400" from-port="2" to-layer="1402" to-port="0" />
		<edge from-layer="1401" from-port="0" to-layer="1402" to-port="1" />
		<edge from-layer="1402" from-port="2" to-layer="1449" to-port="1" />
		<edge from-layer="1403" from-port="0" to-layer="1416" to-port="0" />
		<edge from-layer="1404" from-port="0" to-layer="1405" to-port="1" />
		<edge from-layer="1405" from-port="2" to-layer="1407" to-port="0" />
		<edge from-layer="1406" from-port="0" to-layer="1407" to-port="1" />
		<edge from-layer="1407" from-port="3" to-layer="1419" to-port="1" />
		<edge from-layer="1407" from-port="3" to-layer="1410" to-port="0" />
		<edge from-layer="1408" from-port="0" to-layer="1410" to-port="1" />
		<edge from-layer="1409" from-port="0" to-layer="1410" to-port="2" />
		<edge from-layer="1410" from-port="3" to-layer="1414" to-port="2" />
		<edge from-layer="1410" from-port="3" to-layer="1412" to-port="0" />
		<edge from-layer="1411" from-port="0" to-layer="1412" to-port="1" />
		<edge from-layer="1412" from-port="2" to-layer="1414" to-port="0" />
		<edge from-layer="1413" from-port="0" to-layer="1414" to-port="1" />
		<edge from-layer="1414" from-port="3" to-layer="1416" to-port="1" />
		<edge from-layer="1415" from-port="0" to-layer="1416" to-port="2" />
		<edge from-layer="1416" from-port="3" to-layer="1418" to-port="0" />
		<edge from-layer="1417" from-port="0" to-layer="1418" to-port="1" />
		<edge from-layer="1418" from-port="2" to-layer="1419" to-port="0" />
		<edge from-layer="1419" from-port="2" to-layer="1421" to-port="0" />
		<edge from-layer="1420" from-port="0" to-layer="1421" to-port="1" />
		<edge from-layer="1421" from-port="2" to-layer="1449" to-port="2" />
		<edge from-layer="1422" from-port="0" to-layer="1435" to-port="0" />
		<edge from-layer="1423" from-port="0" to-layer="1424" to-port="1" />
		<edge from-layer="1424" from-port="2" to-layer="1426" to-port="0" />
		<edge from-layer="1425" from-port="0" to-layer="1426" to-port="1" />
		<edge from-layer="1426" from-port="3" to-layer="1438" to-port="1" />
		<edge from-layer="1426" from-port="3" to-layer="1429" to-port="0" />
		<edge from-layer="1427" from-port="0" to-layer="1429" to-port="1" />
		<edge from-layer="1428" from-port="0" to-layer="1429" to-port="2" />
		<edge from-layer="1429" from-port="3" to-layer="1431" to-port="0" />
		<edge from-layer="1429" from-port="3" to-layer="1433" to-port="2" />
		<edge from-layer="1430" from-port="0" to-layer="1431" to-port="1" />
		<edge from-layer="1431" from-port="2" to-layer="1433" to-port="0" />
		<edge from-layer="1432" from-port="0" to-layer="1433" to-port="1" />
		<edge from-layer="1433" from-port="3" to-layer="1435" to-port="1" />
		<edge from-layer="1434" from-port="0" to-layer="1435" to-port="2" />
		<edge from-layer="1435" from-port="3" to-layer="1437" to-port="0" />
		<edge from-layer="1436" from-port="0" to-layer="1437" to-port="1" />
		<edge from-layer="1437" from-port="2" to-layer="1438" to-port="0" />
		<edge from-layer="1438" from-port="2" to-layer="1440" to-port="0" />
		<edge from-layer="1439" from-port="0" to-layer="1440" to-port="1" />
		<edge from-layer="1440" from-port="2" to-layer="1449" to-port="3" />
		<edge from-layer="1441" from-port="0" to-layer="1446" to-port="0" />
		<edge from-layer="1442" from-port="0" to-layer="1443" to-port="1" />
		<edge from-layer="1443" from-port="2" to-layer="1445" to-port="0" />
		<edge from-layer="1444" from-port="0" to-layer="1445" to-port="1" />
		<edge from-layer="1445" from-port="3" to-layer="1446" to-port="1" />
		<edge from-layer="1446" from-port="2" to-layer="1448" to-port="0" />
		<edge from-layer="1447" from-port="0" to-layer="1448" to-port="1" />
		<edge from-layer="1448" from-port="2" to-layer="1449" to-port="4" />
		<edge from-layer="1449" from-port="5" to-layer="1462" to-port="1" />
		<edge from-layer="1450" from-port="0" to-layer="1453" to-port="1" />
		<edge from-layer="1451" from-port="0" to-layer="1453" to-port="2" />
		<edge from-layer="1452" from-port="0" to-layer="1453" to-port="3" />
		<edge from-layer="1453" from-port="4" to-layer="1454" to-port="0" />
		<edge from-layer="1454" from-port="1" to-layer="1460" to-port="0" />
		<edge from-layer="1455" from-port="0" to-layer="1458" to-port="1" />
		<edge from-layer="1456" from-port="0" to-layer="1458" to-port="2" />
		<edge from-layer="1457" from-port="0" to-layer="1458" to-port="3" />
		<edge from-layer="1458" from-port="4" to-layer="1459" to-port="0" />
		<edge from-layer="1459" from-port="1" to-layer="1460" to-port="1" />
		<edge from-layer="1460" from-port="2" to-layer="1461" to-port="0" />
		<edge from-layer="1461" from-port="2" to-layer="1462" to-port="2" />
		<edge from-layer="1462" from-port="3" to-layer="1463" to-port="3" />
		<edge from-layer="1463" from-port="4" to-layer="1465" to-port="0" />
		<edge from-layer="1464" from-port="0" to-layer="1465" to-port="1" />
		<edge from-layer="1465" from-port="2" to-layer="1893" to-port="1" />
		<edge from-layer="1466" from-port="0" to-layer="1467" to-port="0" />
		<edge from-layer="1467" from-port="1" to-layer="1497" to-port="0" />
		<edge from-layer="1468" from-port="0" to-layer="1469" to-port="0" />
		<edge from-layer="1469" from-port="1" to-layer="1470" to-port="1" />
		<edge from-layer="1470" from-port="2" to-layer="1473" to-port="0" />
		<edge from-layer="1471" from-port="0" to-layer="1472" to-port="0" />
		<edge from-layer="1472" from-port="1" to-layer="1473" to-port="1" />
		<edge from-layer="1473" from-port="2" to-layer="1474" to-port="0" />
		<edge from-layer="1474" from-port="1" to-layer="1477" to-port="0" />
		<edge from-layer="1475" from-port="0" to-layer="1476" to-port="0" />
		<edge from-layer="1476" from-port="1" to-layer="1477" to-port="1" />
		<edge from-layer="1477" from-port="2" to-layer="1480" to-port="0" />
		<edge from-layer="1478" from-port="0" to-layer="1479" to-port="0" />
		<edge from-layer="1479" from-port="1" to-layer="1480" to-port="1" />
		<edge from-layer="1480" from-port="2" to-layer="1481" to-port="0" />
		<edge from-layer="1481" from-port="1" to-layer="1482" to-port="0" />
		<edge from-layer="1482" from-port="2" to-layer="1485" to-port="0" />
		<edge from-layer="1483" from-port="0" to-layer="1484" to-port="0" />
		<edge from-layer="1484" from-port="1" to-layer="1485" to-port="1" />
		<edge from-layer="1485" from-port="2" to-layer="1488" to-port="0" />
		<edge from-layer="1486" from-port="0" to-layer="1487" to-port="0" />
		<edge from-layer="1487" from-port="1" to-layer="1488" to-port="1" />
		<edge from-layer="1488" from-port="2" to-layer="1489" to-port="0" />
		<edge from-layer="1489" from-port="1" to-layer="1492" to-port="0" />
		<edge from-layer="1490" from-port="0" to-layer="1491" to-port="0" />
		<edge from-layer="1491" from-port="1" to-layer="1492" to-port="1" />
		<edge from-layer="1492" from-port="2" to-layer="1495" to-port="0" />
		<edge from-layer="1493" from-port="0" to-layer="1494" to-port="0" />
		<edge from-layer="1494" from-port="1" to-layer="1495" to-port="1" />
		<edge from-layer="1495" from-port="2" to-layer="1496" to-port="0" />
		<edge from-layer="1496" from-port="1" to-layer="1506" to-port="0" />
		<edge from-layer="1496" from-port="1" to-layer="1497" to-port="1" />
		<edge from-layer="1497" from-port="2" to-layer="1500" to-port="0" />
		<edge from-layer="1498" from-port="0" to-layer="1499" to-port="0" />
		<edge from-layer="1499" from-port="1" to-layer="1500" to-port="1" />
		<edge from-layer="1500" from-port="2" to-layer="1503" to-port="0" />
		<edge from-layer="1501" from-port="0" to-layer="1502" to-port="0" />
		<edge from-layer="1502" from-port="1" to-layer="1503" to-port="1" />
		<edge from-layer="1503" from-port="2" to-layer="1587" to-port="0" />
		<edge from-layer="1504" from-port="0" to-layer="1505" to-port="0" />
		<edge from-layer="1505" from-port="1" to-layer="1506" to-port="1" />
		<edge from-layer="1506" from-port="2" to-layer="1509" to-port="0" />
		<edge from-layer="1507" from-port="0" to-layer="1508" to-port="0" />
		<edge from-layer="1508" from-port="1" to-layer="1509" to-port="1" />
		<edge from-layer="1509" from-port="2" to-layer="1510" to-port="0" />
		<edge from-layer="1510" from-port="1" to-layer="1513" to-port="0" />
		<edge from-layer="1511" from-port="0" to-layer="1512" to-port="0" />
		<edge from-layer="1512" from-port="1" to-layer="1513" to-port="1" />
		<edge from-layer="1513" from-port="2" to-layer="1516" to-port="0" />
		<edge from-layer="1514" from-port="0" to-layer="1515" to-port="0" />
		<edge from-layer="1515" from-port="1" to-layer="1516" to-port="1" />
		<edge from-layer="1516" from-port="2" to-layer="1517" to-port="0" />
		<edge from-layer="1517" from-port="1" to-layer="1520" to-port="0" />
		<edge from-layer="1518" from-port="0" to-layer="1519" to-port="0" />
		<edge from-layer="1519" from-port="1" to-layer="1520" to-port="1" />
		<edge from-layer="1520" from-port="2" to-layer="1523" to-port="0" />
		<edge from-layer="1521" from-port="0" to-layer="1522" to-port="0" />
		<edge from-layer="1522" from-port="1" to-layer="1523" to-port="1" />
		<edge from-layer="1523" from-port="2" to-layer="1524" to-port="0" />
		<edge from-layer="1524" from-port="1" to-layer="1527" to-port="0" />
		<edge from-layer="1525" from-port="0" to-layer="1526" to-port="0" />
		<edge from-layer="1526" from-port="1" to-layer="1527" to-port="1" />
		<edge from-layer="1527" from-port="2" to-layer="1530" to-port="0" />
		<edge from-layer="1528" from-port="0" to-layer="1529" to-port="0" />
		<edge from-layer="1529" from-port="1" to-layer="1530" to-port="1" />
		<edge from-layer="1530" from-port="2" to-layer="1531" to-port="0" />
		<edge from-layer="1531" from-port="1" to-layer="1534" to-port="0" />
		<edge from-layer="1532" from-port="0" to-layer="1533" to-port="0" />
		<edge from-layer="1533" from-port="1" to-layer="1534" to-port="1" />
		<edge from-layer="1534" from-port="2" to-layer="1537" to-port="0" />
		<edge from-layer="1535" from-port="0" to-layer="1536" to-port="0" />
		<edge from-layer="1536" from-port="1" to-layer="1537" to-port="1" />
		<edge from-layer="1537" from-port="2" to-layer="1538" to-port="0" />
		<edge from-layer="1538" from-port="1" to-layer="1541" to-port="0" />
		<edge from-layer="1539" from-port="0" to-layer="1540" to-port="0" />
		<edge from-layer="1540" from-port="1" to-layer="1541" to-port="1" />
		<edge from-layer="1541" from-port="2" to-layer="1544" to-port="0" />
		<edge from-layer="1542" from-port="0" to-layer="1543" to-port="0" />
		<edge from-layer="1543" from-port="1" to-layer="1544" to-port="1" />
		<edge from-layer="1544" from-port="2" to-layer="1545" to-port="0" />
		<edge from-layer="1545" from-port="1" to-layer="1548" to-port="0" />
		<edge from-layer="1546" from-port="0" to-layer="1547" to-port="0" />
		<edge from-layer="1547" from-port="1" to-layer="1548" to-port="1" />
		<edge from-layer="1548" from-port="2" to-layer="1551" to-port="0" />
		<edge from-layer="1549" from-port="0" to-layer="1550" to-port="0" />
		<edge from-layer="1550" from-port="1" to-layer="1551" to-port="1" />
		<edge from-layer="1551" from-port="2" to-layer="1552" to-port="0" />
		<edge from-layer="1552" from-port="1" to-layer="1555" to-port="0" />
		<edge from-layer="1553" from-port="0" to-layer="1554" to-port="0" />
		<edge from-layer="1554" from-port="1" to-layer="1555" to-port="1" />
		<edge from-layer="1555" from-port="2" to-layer="1558" to-port="0" />
		<edge from-layer="1556" from-port="0" to-layer="1557" to-port="0" />
		<edge from-layer="1557" from-port="1" to-layer="1558" to-port="1" />
		<edge from-layer="1558" from-port="2" to-layer="1559" to-port="0" />
		<edge from-layer="1559" from-port="1" to-layer="1562" to-port="0" />
		<edge from-layer="1560" from-port="0" to-layer="1561" to-port="0" />
		<edge from-layer="1561" from-port="1" to-layer="1562" to-port="1" />
		<edge from-layer="1562" from-port="2" to-layer="1565" to-port="0" />
		<edge from-layer="1563" from-port="0" to-layer="1564" to-port="0" />
		<edge from-layer="1564" from-port="1" to-layer="1565" to-port="1" />
		<edge from-layer="1565" from-port="2" to-layer="1566" to-port="0" />
		<edge from-layer="1566" from-port="1" to-layer="1569" to-port="0" />
		<edge from-layer="1567" from-port="0" to-layer="1568" to-port="0" />
		<edge from-layer="1568" from-port="1" to-layer="1569" to-port="1" />
		<edge from-layer="1569" from-port="2" to-layer="1572" to-port="0" />
		<edge from-layer="1570" from-port="0" to-layer="1571" to-port="0" />
		<edge from-layer="1571" from-port="1" to-layer="1572" to-port="1" />
		<edge from-layer="1572" from-port="2" to-layer="1573" to-port="0" />
		<edge from-layer="1573" from-port="1" to-layer="1576" to-port="0" />
		<edge from-layer="1574" from-port="0" to-layer="1575" to-port="0" />
		<edge from-layer="1575" from-port="1" to-layer="1576" to-port="1" />
		<edge from-layer="1576" from-port="2" to-layer="1579" to-port="0" />
		<edge from-layer="1577" from-port="0" to-layer="1578" to-port="0" />
		<edge from-layer="1578" from-port="1" to-layer="1579" to-port="1" />
		<edge from-layer="1579" from-port="2" to-layer="1580" to-port="0" />
		<edge from-layer="1580" from-port="1" to-layer="1583" to-port="0" />
		<edge from-layer="1581" from-port="0" to-layer="1582" to-port="0" />
		<edge from-layer="1582" from-port="1" to-layer="1583" to-port="1" />
		<edge from-layer="1583" from-port="2" to-layer="1586" to-port="0" />
		<edge from-layer="1584" from-port="0" to-layer="1585" to-port="0" />
		<edge from-layer="1585" from-port="1" to-layer="1586" to-port="1" />
		<edge from-layer="1586" from-port="2" to-layer="1587" to-port="1" />
		<edge from-layer="1587" from-port="2" to-layer="1589" to-port="0" />
		<edge from-layer="1588" from-port="0" to-layer="1589" to-port="1" />
		<edge from-layer="1589" from-port="2" to-layer="1591" to-port="0" />
		<edge from-layer="1590" from-port="0" to-layer="1591" to-port="1" />
		<edge from-layer="1591" from-port="2" to-layer="1633" to-port="0" />
		<edge from-layer="1591" from-port="2" to-layer="1595" to-port="0" />
		<edge from-layer="1592" from-port="0" to-layer="1595" to-port="1" />
		<edge from-layer="1593" from-port="0" to-layer="1595" to-port="2" />
		<edge from-layer="1594" from-port="0" to-layer="1595" to-port="3" />
		<edge from-layer="1595" from-port="4" to-layer="1596" to-port="0" />
		<edge from-layer="1596" from-port="1" to-layer="1629" to-port="0" />
		<edge from-layer="1596" from-port="1" to-layer="1616" to-port="0" />
		<edge from-layer="1596" from-port="1" to-layer="1600" to-port="0" />
		<edge from-layer="1597" from-port="0" to-layer="1600" to-port="1" />
		<edge from-layer="1598" from-port="0" to-layer="1600" to-port="2" />
		<edge from-layer="1599" from-port="0" to-layer="1600" to-port="3" />
		<edge from-layer="1600" from-port="4" to-layer="1603" to-port="0" />
		<edge from-layer="1601" from-port="0" to-layer="1602" to-port="0" />
		<edge from-layer="1602" from-port="1" to-layer="1603" to-port="1" />
		<edge from-layer="1603" from-port="2" to-layer="1606" to-port="0" />
		<edge from-layer="1604" from-port="0" to-layer="1605" to-port="0" />
		<edge from-layer="1605" from-port="1" to-layer="1606" to-port="1" />
		<edge from-layer="1606" from-port="2" to-layer="1609" to-port="0" />
		<edge from-layer="1607" from-port="0" to-layer="1608" to-port="0" />
		<edge from-layer="1608" from-port="1" to-layer="1609" to-port="1" />
		<edge from-layer="1609" from-port="2" to-layer="1612" to-port="0" />
		<edge from-layer="1610" from-port="0" to-layer="1611" to-port="0" />
		<edge from-layer="1611" from-port="1" to-layer="1612" to-port="1" />
		<edge from-layer="1612" from-port="2" to-layer="1890" to-port="0" />
		<edge from-layer="1613" from-port="0" to-layer="1616" to-port="1" />
		<edge from-layer="1614" from-port="0" to-layer="1616" to-port="2" />
		<edge from-layer="1615" from-port="0" to-layer="1616" to-port="3" />
		<edge from-layer="1616" from-port="4" to-layer="1619" to-port="0" />
		<edge from-layer="1617" from-port="0" to-layer="1618" to-port="0" />
		<edge from-layer="1618" from-port="1" to-layer="1619" to-port="1" />
		<edge from-layer="1619" from-port="2" to-layer="1622" to-port="0" />
		<edge from-layer="1620" from-port="0" to-layer="1621" to-port="0" />
		<edge from-layer="1621" from-port="1" to-layer="1622" to-port="1" />
		<edge from-layer="1622" from-port="2" to-layer="1625" to-port="0" />
		<edge from-layer="1623" from-port="0" to-layer="1624" to-port="0" />
		<edge from-layer="1624" from-port="1" to-layer="1625" to-port="1" />
		<edge from-layer="1625" from-port="2" to-layer="1890" to-port="1" />
		<edge from-layer="1626" from-port="0" to-layer="1629" to-port="1" />
		<edge from-layer="1627" from-port="0" to-layer="1629" to-port="2" />
		<edge from-layer="1628" from-port="0" to-layer="1629" to-port="3" />
		<edge from-layer="1629" from-port="4" to-layer="1890" to-port="2" />
		<edge from-layer="1630" from-port="0" to-layer="1633" to-port="1" />
		<edge from-layer="1631" from-port="0" to-layer="1633" to-port="2" />
		<edge from-layer="1632" from-port="0" to-layer="1633" to-port="3" />
		<edge from-layer="1633" from-port="4" to-layer="1702" to-port="0" />
		<edge from-layer="1633" from-port="4" to-layer="1722" to-port="0" />
		<edge from-layer="1633" from-port="4" to-layer="1718" to-port="0" />
		<edge from-layer="1634" from-port="0" to-layer="1641" to-port="0" />
		<edge from-layer="1635" from-port="0" to-layer="1636" to-port="0" />
		<edge from-layer="1636" from-port="1" to-layer="1673" to-port="0" />
		<edge from-layer="1636" from-port="1" to-layer="1646" to-port="0" />
		<edge from-layer="1636" from-port="1" to-layer="1640" to-port="2" />
		<edge from-layer="1636" from-port="1" to-layer="1721" to-port="1" />
		<edge from-layer="1636" from-port="1" to-layer="1648" to-port="2" />
		<edge from-layer="1636" from-port="1" to-layer="1675" to-port="2" />
		<edge from-layer="1636" from-port="1" to-layer="1694" to-port="2" />
		<edge from-layer="1636" from-port="1" to-layer="1656" to-port="2" />
		<edge from-layer="1636" from-port="1" to-layer="1654" to-port="0" />
		<edge from-layer="1636" from-port="1" to-layer="1638" to-port="0" />
		<edge from-layer="1636" from-port="1" to-layer="1692" to-port="0" />
		<edge from-layer="1637" from-port="0" to-layer="1638" to-port="1" />
		<edge from-layer="1638" from-port="2" to-layer="1640" to-port="0" />
		<edge from-layer="1639" from-port="0" to-layer="1640" to-port="1" />
		<edge from-layer="1640" from-port="3" to-layer="1641" to-port="1" />
		<edge from-layer="1641" from-port="2" to-layer="1643" to-port="0" />
		<edge from-layer="1642" from-port="0" to-layer="1643" to-port="1" />
		<edge from-layer="1643" from-port="2" to-layer="1698" to-port="0" />
		<edge from-layer="1644" from-port="0" to-layer="1649" to-port="0" />
		<edge from-layer="1645" from-port="0" to-layer="1646" to-port="1" />
		<edge from-layer="1646" from-port="2" to-layer="1648" to-port="0" />
		<edge from-layer="1647" from-port="0" to-layer="1648" to-port="1" />
		<edge from-layer="1648" from-port="3" to-layer="1649" to-port="1" />
		<edge from-layer="1649" from-port="2" to-layer="1651" to-port="0" />
		<edge from-layer="1650" from-port="0" to-layer="1651" to-port="1" />
		<edge from-layer="1651" from-port="2" to-layer="1698" to-port="1" />
		<edge from-layer="1652" from-port="0" to-layer="1665" to-port="0" />
		<edge from-layer="1653" from-port="0" to-layer="1654" to-port="1" />
		<edge from-layer="1654" from-port="2" to-layer="1656" to-port="0" />
		<edge from-layer="1655" from-port="0" to-layer="1656" to-port="1" />
		<edge from-layer="1656" from-port="3" to-layer="1668" to-port="1" />
		<edge from-layer="1656" from-port="3" to-layer="1659" to-port="0" />
		<edge from-layer="1657" from-port="0" to-layer="1659" to-port="1" />
		<edge from-layer="1658" from-port="0" to-layer="1659" to-port="2" />
		<edge from-layer="1659" from-port="3" to-layer="1661" to-port="0" />
		<edge from-layer="1659" from-port="3" to-layer="1663" to-port="2" />
		<edge from-layer="1660" from-port="0" to-layer="1661" to-port="1" />
		<edge from-layer="1661" from-port="2" to-layer="1663" to-port="0" />
		<edge from-layer="1662" from-port="0" to-layer="1663" to-port="1" />
		<edge from-layer="1663" from-port="3" to-layer="1665" to-port="1" />
		<edge from-layer="1664" from-port="0" to-layer="1665" to-port="2" />
		<edge from-layer="1665" from-port="3" to-layer="1667" to-port="0" />
		<edge from-layer="1666" from-port="0" to-layer="1667" to-port="1" />
		<edge from-layer="1667" from-port="2" to-layer="1668" to-port="0" />
		<edge from-layer="1668" from-port="2" to-layer="1670" to-port="0" />
		<edge from-layer="1669" from-port="0" to-layer="1670" to-port="1" />
		<edge from-layer="1670" from-port="2" to-layer="1698" to-port="2" />
		<edge from-layer="1671" from-port="0" to-layer="1684" to-port="0" />
		<edge from-layer="1672" from-port="0" to-layer="1673" to-port="1" />
		<edge from-layer="1673" from-port="2" to-layer="1675" to-port="0" />
		<edge from-layer="1674" from-port="0" to-layer="1675" to-port="1" />
		<edge from-layer="1675" from-port="3" to-layer="1687" to-port="1" />
		<edge from-layer="1675" from-port="3" to-layer="1678" to-port="0" />
		<edge from-layer="1676" from-port="0" to-layer="1678" to-port="1" />
		<edge from-layer="1677" from-port="0" to-layer="1678" to-port="2" />
		<edge from-layer="1678" from-port="3" to-layer="1682" to-port="2" />
		<edge from-layer="1678" from-port="3" to-layer="1680" to-port="0" />
		<edge from-layer="1679" from-port="0" to-layer="1680" to-port="1" />
		<edge from-layer="1680" from-port="2" to-layer="1682" to-port="0" />
		<edge from-layer="1681" from-port="0" to-layer="1682" to-port="1" />
		<edge from-layer="1682" from-port="3" to-layer="1684" to-port="1" />
		<edge from-layer="1683" from-port="0" to-layer="1684" to-port="2" />
		<edge from-layer="1684" from-port="3" to-layer="1686" to-port="0" />
		<edge from-layer="1685" from-port="0" to-layer="1686" to-port="1" />
		<edge from-layer="1686" from-port="2" to-layer="1687" to-port="0" />
		<edge from-layer="1687" from-port="2" to-layer="1689" to-port="0" />
		<edge from-layer="1688" from-port="0" to-layer="1689" to-port="1" />
		<edge from-layer="1689" from-port="2" to-layer="1698" to-port="3" />
		<edge from-layer="1690" from-port="0" to-layer="1695" to-port="0" />
		<edge from-layer="1691" from-port="0" to-layer="1692" to-port="1" />
		<edge from-layer="1692" from-port="2" to-layer="1694" to-port="0" />
		<edge from-layer="1693" from-port="0" to-layer="1694" to-port="1" />
		<edge from-layer="1694" from-port="3" to-layer="1695" to-port="1" />
		<edge from-layer="1695" from-port="2" to-layer="1697" to-port="0" />
		<edge from-layer="1696" from-port="0" to-layer="1697" to-port="1" />
		<edge from-layer="1697" from-port="2" to-layer="1698" to-port="4" />
		<edge from-layer="1698" from-port="5" to-layer="1722" to-port="1" />
		<edge from-layer="1699" from-port="0" to-layer="1702" to-port="1" />
		<edge from-layer="1700" from-port="0" to-layer="1702" to-port="2" />
		<edge from-layer="1701" from-port="0" to-layer="1702" to-port="3" />
		<edge from-layer="1702" from-port="4" to-layer="1705" to-port="0" />
		<edge from-layer="1703" from-port="0" to-layer="1704" to-port="0" />
		<edge from-layer="1704" from-port="1" to-layer="1705" to-port="1" />
		<edge from-layer="1705" from-port="2" to-layer="1708" to-port="0" />
		<edge from-layer="1706" from-port="0" to-layer="1707" to-port="0" />
		<edge from-layer="1707" from-port="1" to-layer="1708" to-port="1" />
		<edge from-layer="1708" from-port="2" to-layer="1711" to-port="0" />
		<edge from-layer="1709" from-port="0" to-layer="1710" to-port="0" />
		<edge from-layer="1710" from-port="1" to-layer="1711" to-port="1" />
		<edge from-layer="1711" from-port="2" to-layer="1714" to-port="0" />
		<edge from-layer="1712" from-port="0" to-layer="1713" to-port="0" />
		<edge from-layer="1713" from-port="1" to-layer="1714" to-port="1" />
		<edge from-layer="1714" from-port="2" to-layer="1720" to-port="0" />
		<edge from-layer="1715" from-port="0" to-layer="1718" to-port="1" />
		<edge from-layer="1716" from-port="0" to-layer="1718" to-port="2" />
		<edge from-layer="1717" from-port="0" to-layer="1718" to-port="3" />
		<edge from-layer="1718" from-port="4" to-layer="1719" to-port="0" />
		<edge from-layer="1719" from-port="1" to-layer="1720" to-port="1" />
		<edge from-layer="1720" from-port="2" to-layer="1721" to-port="0" />
		<edge from-layer="1721" from-port="2" to-layer="1722" to-port="2" />
		<edge from-layer="1722" from-port="3" to-layer="1807" to-port="0" />
		<edge from-layer="1722" from-port="3" to-layer="1811" to-port="0" />
		<edge from-layer="1722" from-port="3" to-layer="1791" to-port="0" />
		<edge from-layer="1723" from-port="0" to-layer="1730" to-port="0" />
		<edge from-layer="1724" from-port="0" to-layer="1725" to-port="0" />
		<edge from-layer="1725" from-port="1" to-layer="1810" to-port="1" />
		<edge from-layer="1725" from-port="1" to-layer="1783" to-port="2" />
		<edge from-layer="1725" from-port="1" to-layer="1781" to-port="0" />
		<edge from-layer="1725" from-port="1" to-layer="1764" to-port="2" />
		<edge from-layer="1725" from-port="1" to-layer="1762" to-port="0" />
		<edge from-layer="1725" from-port="1" to-layer="1745" to-port="2" />
		<edge from-layer="1725" from-port="1" to-layer="1743" to-port="0" />
		<edge from-layer="1725" from-port="1" to-layer="1729" to-port="2" />
		<edge from-layer="1725" from-port="1" to-layer="1737" to-port="2" />
		<edge from-layer="1725" from-port="1" to-layer="1727" to-port="0" />
		<edge from-layer="1725" from-port="1" to-layer="1735" to-port="0" />
		<edge from-layer="1726" from-port="0" to-layer="1727" to-port="1" />
		<edge from-layer="1727" from-port="2" to-layer="1729" to-port="0" />
		<edge from-layer="1728" from-port="0" to-layer="1729" to-port="1" />
		<edge from-layer="1729" from-port="3" to-layer="1730" to-port="1" />
		<edge from-layer="1730" from-port="2" to-layer="1732" to-port="0" />
		<edge from-layer="1731" from-port="0" to-layer="1732" to-port="1" />
		<edge from-layer="1732" from-port="2" to-layer="1787" to-port="0" />
		<edge from-layer="1733" from-port="0" to-layer="1738" to-port="0" />
		<edge from-layer="1734" from-port="0" to-layer="1735" to-port="1" />
		<edge from-layer="1735" from-port="2" to-layer="1737" to-port="0" />
		<edge from-layer="1736" from-port="0" to-layer="1737" to-port="1" />
		<edge from-layer="1737" from-port="3" to-layer="1738" to-port="1" />
		<edge from-layer="1738" from-port="2" to-layer="1740" to-port="0" />
		<edge from-layer="1739" from-port="0" to-layer="1740" to-port="1" />
		<edge from-layer="1740" from-port="2" to-layer="1787" to-port="1" />
		<edge from-layer="1741" from-port="0" to-layer="1754" to-port="0" />
		<edge from-layer="1742" from-port="0" to-layer="1743" to-port="1" />
		<edge from-layer="1743" from-port="2" to-layer="1745" to-port="0" />
		<edge from-layer="1744" from-port="0" to-layer="1745" to-port="1" />
		<edge from-layer="1745" from-port="3" to-layer="1757" to-port="1" />
		<edge from-layer="1745" from-port="3" to-layer="1748" to-port="0" />
		<edge from-layer="1746" from-port="0" to-layer="1748" to-port="1" />
		<edge from-layer="1747" from-port="0" to-layer="1748" to-port="2" />
		<edge from-layer="1748" from-port="3" to-layer="1750" to-port="0" />
		<edge from-layer="1748" from-port="3" to-layer="1752" to-port="2" />
		<edge from-layer="1749" from-port="0" to-layer="1750" to-port="1" />
		<edge from-layer="1750" from-port="2" to-layer="1752" to-port="0" />
		<edge from-layer="1751" from-port="0" to-layer="1752" to-port="1" />
		<edge from-layer="1752" from-port="3" to-layer="1754" to-port="1" />
		<edge from-layer="1753" from-port="0" to-layer="1754" to-port="2" />
		<edge from-layer="1754" from-port="3" to-layer="1756" to-port="0" />
		<edge from-layer="1755" from-port="0" to-layer="1756" to-port="1" />
		<edge from-layer="1756" from-port="2" to-layer="1757" to-port="0" />
		<edge from-layer="1757" from-port="2" to-layer="1759" to-port="0" />
		<edge from-layer="1758" from-port="0" to-layer="1759" to-port="1" />
		<edge from-layer="1759" from-port="2" to-layer="1787" to-port="2" />
		<edge from-layer="1760" from-port="0" to-layer="1773" to-port="0" />
		<edge from-layer="1761" from-port="0" to-layer="1762" to-port="1" />
		<edge from-layer="1762" from-port="2" to-layer="1764" to-port="0" />
		<edge from-layer="1763" from-port="0" to-layer="1764" to-port="1" />
		<edge from-layer="1764" from-port="3" to-layer="1776" to-port="1" />
		<edge from-layer="1764" from-port="3" to-layer="1767" to-port="0" />
		<edge from-layer="1765" from-port="0" to-layer="1767" to-port="1" />
		<edge from-layer="1766" from-port="0" to-layer="1767" to-port="2" />
		<edge from-layer="1767" from-port="3" to-layer="1769" to-port="0" />
		<edge from-layer="1767" from-port="3" to-layer="1771" to-port="2" />
		<edge from-layer="1768" from-port="0" to-layer="1769" to-port="1" />
		<edge from-layer="1769" from-port="2" to-layer="1771" to-port="0" />
		<edge from-layer="1770" from-port="0" to-layer="1771" to-port="1" />
		<edge from-layer="1771" from-port="3" to-layer="1773" to-port="1" />
		<edge from-layer="1772" from-port="0" to-layer="1773" to-port="2" />
		<edge from-layer="1773" from-port="3" to-layer="1775" to-port="0" />
		<edge from-layer="1774" from-port="0" to-layer="1775" to-port="1" />
		<edge from-layer="1775" from-port="2" to-layer="1776" to-port="0" />
		<edge from-layer="1776" from-port="2" to-layer="1778" to-port="0" />
		<edge from-layer="1777" from-port="0" to-layer="1778" to-port="1" />
		<edge from-layer="1778" from-port="2" to-layer="1787" to-port="3" />
		<edge from-layer="1779" from-port="0" to-layer="1784" to-port="0" />
		<edge from-layer="1780" from-port="0" to-layer="1781" to-port="1" />
		<edge from-layer="1781" from-port="2" to-layer="1783" to-port="0" />
		<edge from-layer="1782" from-port="0" to-layer="1783" to-port="1" />
		<edge from-layer="1783" from-port="3" to-layer="1784" to-port="1" />
		<edge from-layer="1784" from-port="2" to-layer="1786" to-port="0" />
		<edge from-layer="1785" from-port="0" to-layer="1786" to-port="1" />
		<edge from-layer="1786" from-port="2" to-layer="1787" to-port="4" />
		<edge from-layer="1787" from-port="5" to-layer="1811" to-port="1" />
		<edge from-layer="1788" from-port="0" to-layer="1791" to-port="1" />
		<edge from-layer="1789" from-port="0" to-layer="1791" to-port="2" />
		<edge from-layer="1790" from-port="0" to-layer="1791" to-port="3" />
		<edge from-layer="1791" from-port="4" to-layer="1794" to-port="0" />
		<edge from-layer="1792" from-port="0" to-layer="1793" to-port="0" />
		<edge from-layer="1793" from-port="1" to-layer="1794" to-port="1" />
		<edge from-layer="1794" from-port="2" to-layer="1797" to-port="0" />
		<edge from-layer="1795" from-port="0" to-layer="1796" to-port="0" />
		<edge from-layer="1796" from-port="1" to-layer="1797" to-port="1" />
		<edge from-layer="1797" from-port="2" to-layer="1800" to-port="0" />
		<edge from-layer="1798" from-port="0" to-layer="1799" to-port="0" />
		<edge from-layer="1799" from-port="1" to-layer="1800" to-port="1" />
		<edge from-layer="1800" from-port="2" to-layer="1803" to-port="0" />
		<edge from-layer="1801" from-port="0" to-layer="1802" to-port="0" />
		<edge from-layer="1802" from-port="1" to-layer="1803" to-port="1" />
		<edge from-layer="1803" from-port="2" to-layer="1809" to-port="0" />
		<edge from-layer="1804" from-port="0" to-layer="1807" to-port="1" />
		<edge from-layer="1805" from-port="0" to-layer="1807" to-port="2" />
		<edge from-layer="1806" from-port="0" to-layer="1807" to-port="3" />
		<edge from-layer="1807" from-port="4" to-layer="1808" to-port="0" />
		<edge from-layer="1808" from-port="1" to-layer="1809" to-port="1" />
		<edge from-layer="1809" from-port="2" to-layer="1810" to-port="0" />
		<edge from-layer="1810" from-port="2" to-layer="1811" to-port="2" />
		<edge from-layer="1811" from-port="3" to-layer="1889" to-port="0" />
		<edge from-layer="1811" from-port="3" to-layer="1885" to-port="0" />
		<edge from-layer="1811" from-port="3" to-layer="1880" to-port="0" />
		<edge from-layer="1812" from-port="0" to-layer="1819" to-port="0" />
		<edge from-layer="1813" from-port="0" to-layer="1814" to-port="0" />
		<edge from-layer="1814" from-port="1" to-layer="1872" to-port="2" />
		<edge from-layer="1814" from-port="1" to-layer="1888" to-port="1" />
		<edge from-layer="1814" from-port="1" to-layer="1870" to-port="0" />
		<edge from-layer="1814" from-port="1" to-layer="1853" to-port="2" />
		<edge from-layer="1814" from-port="1" to-layer="1851" to-port="0" />
		<edge from-layer="1814" from-port="1" to-layer="1834" to-port="2" />
		<edge from-layer="1814" from-port="1" to-layer="1832" to-port="0" />
		<edge from-layer="1814" from-port="1" to-layer="1818" to-port="2" />
		<edge from-layer="1814" from-port="1" to-layer="1826" to-port="2" />
		<edge from-layer="1814" from-port="1" to-layer="1824" to-port="0" />
		<edge from-layer="1814" from-port="1" to-layer="1816" to-port="0" />
		<edge from-layer="1815" from-port="0" to-layer="1816" to-port="1" />
		<edge from-layer="1816" from-port="2" to-layer="1818" to-port="0" />
		<edge from-layer="1817" from-port="0" to-layer="1818" to-port="1" />
		<edge from-layer="1818" from-port="3" to-layer="1819" to-port="1" />
		<edge from-layer="1819" from-port="2" to-layer="1821" to-port="0" />
		<edge from-layer="1820" from-port="0" to-layer="1821" to-port="1" />
		<edge from-layer="1821" from-port="2" to-layer="1876" to-port="0" />
		<edge from-layer="1822" from-port="0" to-layer="1827" to-port="0" />
		<edge from-layer="1823" from-port="0" to-layer="1824" to-port="1" />
		<edge from-layer="1824" from-port="2" to-layer="1826" to-port="0" />
		<edge from-layer="1825" from-port="0" to-layer="1826" to-port="1" />
		<edge from-layer="1826" from-port="3" to-layer="1827" to-port="1" />
		<edge from-layer="1827" from-port="2" to-layer="1829" to-port="0" />
		<edge from-layer="1828" from-port="0" to-layer="1829" to-port="1" />
		<edge from-layer="1829" from-port="2" to-layer="1876" to-port="1" />
		<edge from-layer="1830" from-port="0" to-layer="1843" to-port="0" />
		<edge from-layer="1831" from-port="0" to-layer="1832" to-port="1" />
		<edge from-layer="1832" from-port="2" to-layer="1834" to-port="0" />
		<edge from-layer="1833" from-port="0" to-layer="1834" to-port="1" />
		<edge from-layer="1834" from-port="3" to-layer="1846" to-port="1" />
		<edge from-layer="1834" from-port="3" to-layer="1837" to-port="0" />
		<edge from-layer="1835" from-port="0" to-layer="1837" to-port="1" />
		<edge from-layer="1836" from-port="0" to-layer="1837" to-port="2" />
		<edge from-layer="1837" from-port="3" to-layer="1841" to-port="2" />
		<edge from-layer="1837" from-port="3" to-layer="1839" to-port="0" />
		<edge from-layer="1838" from-port="0" to-layer="1839" to-port="1" />
		<edge from-layer="1839" from-port="2" to-layer="1841" to-port="0" />
		<edge from-layer="1840" from-port="0" to-layer="1841" to-port="1" />
		<edge from-layer="1841" from-port="3" to-layer="1843" to-port="1" />
		<edge from-layer="1842" from-port="0" to-layer="1843" to-port="2" />
		<edge from-layer="1843" from-port="3" to-layer="1845" to-port="0" />
		<edge from-layer="1844" from-port="0" to-layer="1845" to-port="1" />
		<edge from-layer="1845" from-port="2" to-layer="1846" to-port="0" />
		<edge from-layer="1846" from-port="2" to-layer="1848" to-port="0" />
		<edge from-layer="1847" from-port="0" to-layer="1848" to-port="1" />
		<edge from-layer="1848" from-port="2" to-layer="1876" to-port="2" />
		<edge from-layer="1849" from-port="0" to-layer="1862" to-port="0" />
		<edge from-layer="1850" from-port="0" to-layer="1851" to-port="1" />
		<edge from-layer="1851" from-port="2" to-layer="1853" to-port="0" />
		<edge from-layer="1852" from-port="0" to-layer="1853" to-port="1" />
		<edge from-layer="1853" from-port="3" to-layer="1856" to-port="0" />
		<edge from-layer="1853" from-port="3" to-layer="1865" to-port="1" />
		<edge from-layer="1854" from-port="0" to-layer="1856" to-port="1" />
		<edge from-layer="1855" from-port="0" to-layer="1856" to-port="2" />
		<edge from-layer="1856" from-port="3" to-layer="1858" to-port="0" />
		<edge from-layer="1856" from-port="3" to-layer="1860" to-port="2" />
		<edge from-layer="1857" from-port="0" to-layer="1858" to-port="1" />
		<edge from-layer="1858" from-port="2" to-layer="1860" to-port="0" />
		<edge from-layer="1859" from-port="0" to-layer="1860" to-port="1" />
		<edge from-layer="1860" from-port="3" to-layer="1862" to-port="1" />
		<edge from-layer="1861" from-port="0" to-layer="1862" to-port="2" />
		<edge from-layer="1862" from-port="3" to-layer="1864" to-port="0" />
		<edge from-layer="1863" from-port="0" to-layer="1864" to-port="1" />
		<edge from-layer="1864" from-port="2" to-layer="1865" to-port="0" />
		<edge from-layer="1865" from-port="2" to-layer="1867" to-port="0" />
		<edge from-layer="1866" from-port="0" to-layer="1867" to-port="1" />
		<edge from-layer="1867" from-port="2" to-layer="1876" to-port="3" />
		<edge from-layer="1868" from-port="0" to-layer="1873" to-port="0" />
		<edge from-layer="1869" from-port="0" to-layer="1870" to-port="1" />
		<edge from-layer="1870" from-port="2" to-layer="1872" to-port="0" />
		<edge from-layer="1871" from-port="0" to-layer="1872" to-port="1" />
		<edge from-layer="1872" from-port="3" to-layer="1873" to-port="1" />
		<edge from-layer="1873" from-port="2" to-layer="1875" to-port="0" />
		<edge from-layer="1874" from-port="0" to-layer="1875" to-port="1" />
		<edge from-layer="1875" from-port="2" to-layer="1876" to-port="4" />
		<edge from-layer="1876" from-port="5" to-layer="1889" to-port="1" />
		<edge from-layer="1877" from-port="0" to-layer="1880" to-port="1" />
		<edge from-layer="1878" from-port="0" to-layer="1880" to-port="2" />
		<edge from-layer="1879" from-port="0" to-layer="1880" to-port="3" />
		<edge from-layer="1880" from-port="4" to-layer="1881" to-port="0" />
		<edge from-layer="1881" from-port="1" to-layer="1887" to-port="0" />
		<edge from-layer="1882" from-port="0" to-layer="1885" to-port="1" />
		<edge from-layer="1883" from-port="0" to-layer="1885" to-port="2" />
		<edge from-layer="1884" from-port="0" to-layer="1885" to-port="3" />
		<edge from-layer="1885" from-port="4" to-layer="1886" to-port="0" />
		<edge from-layer="1886" from-port="1" to-layer="1887" to-port="1" />
		<edge from-layer="1887" from-port="2" to-layer="1888" to-port="0" />
		<edge from-layer="1888" from-port="2" to-layer="1889" to-port="2" />
		<edge from-layer="1889" from-port="3" to-layer="1890" to-port="3" />
		<edge from-layer="1890" from-port="4" to-layer="1892" to-port="0" />
		<edge from-layer="1891" from-port="0" to-layer="1892" to-port="1" />
		<edge from-layer="1892" from-port="2" to-layer="1893" to-port="2" />
		<edge from-layer="1893" from-port="3" to-layer="1894" to-port="0" />
	</edges>
	<rt_info>
		<MO_version value="2022.3.0-9052-9752fafe8eb-releases/2022/3" />
		<Runtime_version value="2022.3.0-9052-9752fafe8eb-releases/2022/3" />
		<conversion_parameters>
			<compress_to_fp16 value="True" />
			<input_model value="DIR/best.onnx" />
		</conversion_parameters>
		<legacy_frontend value="False" />
	</rt_info>
</net>
